model-1.pth (torch, 59290 bytes, 19 tensors)

0.weight f4 [40, 3]
000000 09 c0 ed 3e ec d1 ff 3e 6c 64 e1 bd 8f cd 11 3f
       0.46435574 0.49964845 -0.11005482 0.5695428
000010 a8 42 b2 bd 99 f6 18 3e 96 2e 7b be 3d cb bc 3e
       -0.0870412 0.1493782 -0.2452949 0.36873809
000020 e3 c1 0b 3f c8 80 c8 be e4 bd 08 3f b5 51 12 3e
       0.5459272 -0.39160752 0.5341475 0.14288981
000030 10 92 cc 3e f3 9a 9a 3d 3a 8c 8f 3e fb ce 9f bd
       0.39955187 0.075490855 0.28036672 -0.0780315
000040 2e 52 df 3e 87 bf fc 3d 08 48 95 be 95 ce e4 3d
       0.43617386 0.123412184 -0.29156518 0.11172215
000050 1e 6d 92 be 32 02 d5 bd 15 fd 8a be 31 61 b1 3e
       -0.28598875 -0.10400809 -0.2714621 0.34644464
000060 7d 7b fc be 16 76 9b be 8b a0 4d be df cf c4 be
       -0.49312964 -0.3036353 -0.20080774 -0.38439843
000070 cb 10 82 3c 07 ab 1b bf 4d a7 0e 3f af 4b e8 be
       0.015877148 -0.6080784 0.5572403 -0.45370242
000080 cf f1 f3 3e 9f e5 73 3d 5c 94 65 be 84 ea a9 3e
       0.47645423 0.059545156 -0.22419876 0.33186734
000090 eb 69 ef 3d b4 78 fc 3e 94 9c ad 3d fb 59 15 be
       0.11690124 0.4931084 0.084771305 -0.14585106
0000a0 f1 12 44 3e 53 a0 fa bd e2 dd 8c 3e e8 fb 0b 3f
       0.1914785 -0.12237611 0.27513033 0.54681253
0000b0 b6 30 bc 3e 6a 20 5e be 1f 1e bd 3e 5e ce 0b 3e
       0.36755913 -0.21692052 0.36937043 0.13652942
0000c0 dc f1 86 3e cc 53 c2 be 98 3a 1b bf 46 82 7e be
       0.263564 -0.37954557 -0.6063628 -0.24854383
0000d0 5c 0c f0 be ad f6 e2 3e b4 83 4f 3e e9 50 8d 3e
       -0.4688443 0.44328824 0.20265085 0.27600792
0000e0 36 c6 60 3e 66 42 9c 3c 5c 64 f6 3e c0 66 bf be
       0.21950611 0.01907463 0.48123443 -0.3738308
0000f0 32 76 44 3a f7 dc db be dc 77 22 3e 75 21 71 be
       0.0007494419 -0.4294202 0.15866035 -0.23547919
000100 21 bf 0e 3e c1 6f 19 be a4 7f fe 3e 94 e3 a4 be
       0.13940097 -0.14984037 0.49706757 -0.32204878
000110 ee 9f 9d be 7f 6c c0 be 1a c6 f7 3e a9 67 30 3e
       -0.3078608 -0.37582776 0.48393327 0.17227043
000120 8a f3 16 3f 46 42 e2 be 36 86 0d bf dc 43 fa be
       0.5896536 -0.44191188 -0.55282915 -0.48879898
000130 c2 2f da be 37 fe 48 3e c9 25 79 3e 57 62 04 3f
       -0.4261456 0.19628225 0.2433082 0.51712555
000140 5d 80 85 be b9 16 c5 be 98 c1 a1 3e dc 9f 66 be
       -0.26074496 -0.384939 0.31593013 -0.22521919
000150 53 52 c2 3e 92 5f d9 bd 7f 53 b9 3e 7e 86 ee be
       0.37953433 -0.10613932 0.36196515 -0.46586984
000160 e6 6b 9f be bf e1 20 3e 1c 89 22 3e fd 8d e0 bd
       -0.31137007 0.15711115 0.15872616 -0.10964582
000170 5f 05 bb 3e 8f 55 bc 3e 11 3c e3 be f0 3a a9 be
       0.36527535 0.36784026 -0.44381765 -0.33052778
000180 ae c3 10 3f bc db 20 be 73 f3 39 be 73 20 14 bf
       0.56548584 -0.15708822 -0.18159275 -0.57862014
000190 a8 30 b3 be 61 5f f6 3d 27 20 cb bd 7d 4b e4 be
       -0.3499806 0.12029911 -0.09918242 -0.44588843
0001a0 30 e1 bf 3c 24 b4 dd be 37 91 07 bf 58 00 b6 be
       0.023422807 -0.433015 -0.52955955 -0.35547137
0001b0 3f 2d 0a bf 25 18 cf be 02 48 0b 3f 6a 0d 0b 3e
       -0.5397529 -0.40448108 0.5440675 0.13579336
0001c0 ec 4e 50 3e 12 7b 00 bf 32 ee d4 be f3 1b 6b be
       0.20342606 -0.5018779 -0.4158798 -0.2295988
0001d0 d7 3a 5a 3d eb 0e 01 bf 0f 8b 82 be a8 cd b6 be
       0.05327877 -0.5041339 -0.25496718 -0.35703778

0.bias f4 [40]
000000 47 59 d3 3c 9b a0 31 be c5 1a c4 ba 38 1d b6 be
       0.025799407 -0.17346422 -0.0014961591 -0.35569167
000010 a5 65 d0 be e3 c0 a7 be 91 66 6d be 26 77 fd be
       -0.4070255 -0.32764348 -0.23183657 -0.49504966
000020 fc 4c e3 3e 07 3e 1f be 27 2a 09 3f d6 69 10 3e
       0.44394672 -0.15551005 0.53579944 0.14102873
000030 19 5a eb be 2b 43 e0 3e 94 97 fd bd 32 f0 3b be
       -0.45967177 0.43801245 -0.12382427 -0.18353346
000040 be e0 02 bf 93 6c 1a bf 6f b3 51 3e ad 64 c0 bd
       -0.5112418 -0.6032192 0.20478605 -0.093942024
000050 7e f2 3e 3e 1a 65 03 bf da 56 e6 3e 33 03 ec be
       0.18647191 -0.51326144 0.44988137 -0.4609619
000060 2c 63 7f bd ab 71 a4 3d c6 2b ad 3e f8 a2 f3 3e
       -0.062350437 0.08029493 0.3382246 0.47585273
000070 6e 01 0f 3f d7 27 f5 be 9d 23 3d 3e 70 38 8d be
       0.55861557 -0.47881958 0.18470617 -0.2758212
000080 40 ac c1 bc 35 3d e9 be 23 55 fa 3e f0 8f ee be
       -0.023641706 -0.4555451 0.4889308 -0.4659419
000090 eb f5 89 3e d4 de 6d 3e 39 d1 17 3e 51 e9 a3 be
       0.26945433 0.23229533 0.14825906 -0.32013944

2.weight f4 [40, 40]
000000 09 7d 34 3e 5b 00 85 3d 32 12 6e 3d e9 cd 27 be
       0.17625822 0.064942084 0.05812282 -0.16387142
000010 39 ad c4 3d fd e1 07 3c b7 c2 d5 bd d9 44 d2 3d
       0.09603352 0.008293626 -0.104375295 0.10267038
000020 65 89 7a 3b 4a 28 f5 bd d6 36 46 bd a6 f9 2f bd
       0.0038228866 -0.11970575 -0.04839214 -0.042962693
000030 59 de f5 3d fe ea a9 bb 91 9c 6c bd a5 c8 37 bd
       0.120053 -0.005185484 -0.0577665 -0.044869084
000040 ce c6 1c be c0 bd be 3c bd ed 1e 3e 32 fc ed bd
       -0.15310213 0.02328384 0.15520377 -0.11620368
000050 8d 7b 85 3b 4a fb 46 3d 86 a8 76 3d 59 9e af bd
       0.0040735663 0.04857949 0.06021931 -0.08575124
000060 02 d6 c6 3d cf d7 4f 3d 52 82 bc 3d 04 86 2f 3c
       0.097087875 0.05074292 0.09204544 0.010713104
000070 e3 16 14 bc 61 8b 83 bc 80 34 bb 3b 79 e3 ac bd
       -0.00903866 -0.016057672 0.0057130456 -0.084418245
000080 db a3 06 3e 14 c3 d2 3d 9a 15 40 bd 58 41 8c bd
       0.13148443 0.102911144 -0.0468956 -0.06848401
000090 4a fe f2 bc 7a 9d bf 3c e3 d7 c5 3b 09 80 3c 3c
       -0.02966227 0.02339052 0.0060376986 0.011505135
0000a0 92 fb 2a be 64 88 a2 bd f1 37 da 3d ed 13 b3 3d
       -0.16697529 -0.07936171 0.10655201 0.08744035
0000b0 1e 9a e0 bc ec 11 eb bd af 5a 95 bd 7e 62 f0 bd
       -0.027417239 -0.11478028 -0.07292687 -0.11737536
0000c0 1e 17 f6 bc db 7d 9d 3d 40 d9 9a 3d 5b e7 bf 3d
       -0.03004032 0.07690021 0.075609684 0.093702994
0000d0 e5 3c 24 be 61 68 f8 bd f0 70 44 bd a5 a2 13 3e
       -0.16038854 -0.12129284 -0.047959268 0.14417513
0000e0 3c 3b 47 3d 4b 29 88 bc 10 a5 2a 3d 37 69 a9 bd
       0.048640475 -0.016621253 0.041661322 -0.08272021
0000f0 2d 92 a4 bd 54 e3 0f 3e 2b 5d c4 bd c2 d3 ca 3b
       -0.08035693 0.14051563 -0.09588083 0.0061897943
000100 e4 4e 2c be e0 f4 03 3e 1d 40 c4 3d 7a 76 ec 3c
       -0.1682697 0.12886381 0.09582541 0.028865088
000110 3b e9 09 be b3 07 07 be 6e 0d 1f be 93 68 14 3e
       -0.13467877 -0.13186531 -0.15532467 0.14493017
000120 04 37 5e 3d 63 03 21 3e 24 d5 d1 3d 6d c8 83 3d
       0.054251686 0.15723948 0.102457315 0.064347126
000130 c3 af aa 3c ea 54 13 be 1b 58 e7 bd 86 cb fd bd
       0.020835763 -0.14387861 -0.11296102 -0.12392335
000140 c2 33 c7 3d 2e de 78 bd 0e e7 d3 3b 9f 62 83 bd
       0.09726669 -0.060758762 0.006466753 -0.06415295
000150 06 09 96 bb aa c8 99 bd f5 bb 01 be 18 15 9b 3c
       -0.0045787124 -0.07508977 -0.12669356 0.018930957
000160 be 42 9f bd 88 94 8c 3d f0 85 5a bd d6 61 1d be
       -0.07776402 0.068642676 -0.05335039 -0.15369353
000170 db fb cd 3b 64 1b 1e bd 16 cd 7c bc 06 f5 f1 bd
       0.006286127 -0.03860034 -0.015429756 -0.11814313
000180 b2 e2 4e 3d 05 a4 12 be 2f 7b e6 3d 26 62 da 3d
       0.050509162 -0.14320381 0.11253964 0.106632516
000190 c3 4e 9e 3d 0b bf 17 be eb d1 01 3e 47 9d 36 bd
       0.07729866 -0.14818971 0.12677734 -0.044583585
0001a0 72 d5 e8 3c 14 09 ee 3d 47 df 30 3c ba e1 1b 3d
       0.028422091 0.11622825 0.010795421 0.038057067
0001b0 36 49 d2 bb 1d c8 28 be 69 23 9f 3d da 99 48 be
       -0.006417419 -0.16482587 0.07770426 -0.1958994
0001c0 67 c3 e6 3d dd 21 af 3d ec 4f ec 3d f2 fa 8f bd
       0.11267739 0.08551381 0.115386814 -0.07030286
0001d0 17 86 25 be c7 c3 8c 3d ea 42 65 3d 2f 83 42 be
       -0.16164432 0.06873279 0.055972017 -0.18995355
0001e0 6b 8c 93 bd 70 b8 02 be 56 fe 08 bd 55 f1 22 bd
       -0.07204517 -0.1276567 -0.03344568 -0.039780933
0001f0 9b aa bd bd 72 33 96 bd 74 8e e7 bd d9 1f 2b 3e
       -0.09261056 -0.07334031 -0.11306468 0.16711368
000200 10 21 29 3e 51 73 44 3c 57 12 67 bd ab b1 d7 bd
       0.16516519 0.011990384 -0.056413975 -0.10531934
000210 58 db 30 be 9f 45 45 be a2 3a bc 3c a9 22 4c bd
       -0.17271173 -0.1926484 0.022977177 -0.049837742
000220 15 42 80 bd 3b fe cc 3c e7 54 b7 bd a6 50 b1 bd
       -0.06262604 0.02502357 -0.08951741 -0.086579606
000230 f7 71 21 3d 0b 89 93 3b ee 84 bc bd 25 e9 14 bd
       0.039415326 0.004502421 -0.09205042 -0.036355156
000240 13 b7 14 be b9 47 2c 3e 5e 54 cd bd 92 7f cc 3a
       -0.14522962 0.16824235 -0.100258574 0.0015601984
000250 d1 95 bd bd 9c 01 4d 3d 27 e8 de 3d df 3c e7 3d
       -0.09257091 0.050050363 0.10884123 0.11290907
000260 5c 8f 2f be 48 a7 cc 3d b0 d9 32 3e e6 a6 a1 3d
       -0.17144531 0.09992844 0.17465854 0.078931615
000270 7b de 0f 3e 4e fc f3 3d b2 dc 2f 3c e1 fe 8e 3d
       0.14049713 0.11913358 0.01073377 0.06982208
000280 11 9c bd bd f7 db 90 bc 38 14 18 3e 79 3d a1 3d
       -0.09258283 -0.017683012 0.14851463 0.07873053
000290 84 89 ab bd 1b 15 d6 bd e4 39 fb bd cf a6 31 be
       -0.083758384 -0.10453244 -0.12266901 -0.17348789
0002a0 5d 98 0e be 8e d3 61 bd 39 7b f1 3d 47 4f 9b bb
       -0.1392531 -0.055133395 0.11791081 -0.004739675
0002b0 7b 0d cf bd 42 d3 d9 bd 5e 13 c5 3d b4 cb dd bd
       -0.10109993 -0.10635997 0.096228346 -0.10829869
0002c0 b2 70 25 bd bf 13 70 3d 10 8a 64 bd b5 82 e9 3a
       -0.040390678 0.05861258 -0.05579573 0.0017815443
0002d0 86 7f 0a bd 2a 29 56 bd 6e da 88 bd 72 a3 06 be
       -0.033813022 -0.05228535 -0.06682287 -0.13148287
0002e0 4c a9 03 be 20 e3 d0 bd 5b 26 2e 3e a5 bc 48 bd
       -0.1285755 -0.10199571 0.17006819 -0.04900803
0002f0 78 a1 b8 bd f3 7f ad 3c 64 60 53 3d 4f 7b 73 3d
       -0.09015173 0.021179175 0.051605597 0.059443768
000300 df e8 09 3e ff 31 91 3d 4c eb 34 be 9e cc 4e bb
       0.1346774 0.07089614 -0.17667884 -0.0031555067
000310 d4 98 a0 3d e9 3a 39 3b bc ee e1 bd 73 d1 08 3e
       0.0784165 0.0028263873 -0.11031863 0.13361149
000320 8c bb bd bc aa 6a 67 bd 15 99 d6 bd 6c 30 29 3d
       -0.023160718 -0.056498207 -0.10478417 0.041305944
000330 72 d0 d1 3d 7e 15 8e 3d e0 b3 a3 bb 3d 4d 20 be
       0.10244836 0.06937693 -0.004995808 -0.15654464
000340 a8 a0 3a be 92 42 08 bd 8e 15 3a 3e 37 49 61 3d
       -0.18225348 -0.03326661 0.18172285 0.055001464
000350 cb 8d 6b bd 29 0c 8e 3c b0 70 a5 bd f4 37 21 bd
       -0.05750827 0.017339783 -0.08078134 -0.03936
000360 b1 e3 12 bc 9f 82 4a 3d 45 46 2b 3e 28 47 e0 bd
       -0.008965419 0.049440976 0.16726024 -0.10951072
000370 5a f6 8f 3d 39 72 18 be d5 e7 c3 3d 49 71 24 3e
       0.0702941 -0.14887322 0.09565703 0.1605884
000380 ea 34 1a bd 03 6d dd 3d 70 56 c9 bd d9 22 af bc
       -0.03764812 0.10811808 -0.0983094 -0.021378921
000390 28 18 04 3e 24 65 91 bd 70 fc df 3b b2 22 d5 bd
       0.1289984 -0.07099369 0.006835513 -0.10407008
0003a0 14 79 12 3e 6d ff 27 3d ac 98 89 3c 14 82 00 be
       0.14304 0.041015077 0.016796432 -0.12549621
0003b0 ee 86 27 be fb 9a 5a 3d 16 64 3c 3c b0 00 e0 bd
       -0.16360065 0.053370457 0.011498472 -0.10937631
0003c0 9a 06 5a bd 74 55 bc 3d b6 75 ce 3c 2a a1 0f 3d
       -0.053228952 0.091959864 0.025202613 0.035065807
0003d0 63 fa 4f bd 0d 3f 16 be d4 46 09 be ea cc 88 bd
       -0.050775897 -0.1467249 -0.13405925 -0.06679709
0003e0 ab 60 8f bd dd b1 7b 3d c5 cd 89 bd f1 5f 83 bd
       -0.0700086 0.06144892 -0.067287005 -0.06414784
0003f0 cd c6 11 3e 7c 1e 51 3d 57 6b d4 3d 86 1e 6f bd
       0.14235993 0.051054463 0.10372036 -0.05837872

2.bias f4 [40]
000000 a3 ab 9a bd af 7e f2 bd 90 a8 fc bd 3d 3e 88 bd
       -0.07552268 -0.11840569 -0.12336838 -0.06652496
000010 4b 98 01 be 9c 3a 81 bc 34 40 21 3d af 3a 1a 3e
       -0.12655751 -0.015775017 0.03936787 0.15061449
000020 8c 13 54 3d d2 3e fe 3d 8d f9 ce 3d 86 69 0a be
       0.051776454 0.12414326 0.10106192 -0.13516816
000030 eb 9e c0 bd 41 3f 1d 3c ed 0d 3f 3e 2e 54 f2 3c
       -0.09405311 0.0095976 0.18657656 0.029581156
000040 a4 11 4e bd b0 5a 13 be e7 94 e9 bd 99 88 14 be
       -0.050309792 -0.14390063 -0.11405354 -0.14505233
000050 a6 59 19 3e f7 2e 29 3c d9 b8 33 be 87 d4 f1 38
       0.14975604 0.010326139 -0.17550983 0.00011531362
000060 48 19 1e 3c 13 11 92 3c d3 70 bc 3d 49 d2 48 3d
       0.009649582 0.017830407 0.09201207 0.04902867
000070 41 77 f9 bd 29 ec 1c be 45 77 ee 3c 06 b4 fa bd
       -0.12180949 -0.15324463 0.029109607 -0.12241368
000080 41 b1 d9 bd 82 7a 37 3e 45 19 c4 3c 88 13 de bd
       -0.106295116 0.17917827 0.02393783 -0.10843569
000090 4e 27 be bd ed 11 24 be 99 82 af 3d 9c 8a 93 bd
       -0.092848405 -0.16022463 0.085698314 -0.07204172

4.weight f4 [40, 40]
000000 7c 39 d2 bd 9e bf b6 bd 69 21 75 3d 2a 54 f1 3b
       -0.102648705 -0.08923267 0.059846316 0.0073647695
000010 66 b1 7f bc e8 b0 9c bd 21 eb 83 bd 30 ac a4 bb
       -0.01560626 -0.0765093 -0.06441332 -0.005025409
000020 d0 13 1b 3e 19 8e fa bd 0c 57 c0 bc 2f 20 b3 bd
       0.15144277 -0.12234134 -0.023479007 -0.08746373
000030 07 09 d6 bd b5 e9 e8 3d 09 97 e6 bc ef 35 f5 3d
       -0.104509406 0.11372701 -0.028148191 0.11973178
000040 0b 23 8b 3b 1c 36 62 bd 84 8d 8b bd 1b b1 2e 3e
       0.004246121 -0.055227384 -0.06814101 0.17059748
000050 66 5a 1b be bb d0 56 3d a2 e6 8e 3d 9c a4 9e 3d
       -0.15171203 0.052445155 0.069775835 0.077462405
000060 c6 a9 f2 3d f9 42 91 bd c3 36 88 3d c7 63 c4 bd
       0.11848788 -0.07092852 0.0665107 -0.095893435
000070 e1 86 b0 bd fb 28 16 3e f5 04 85 3c af 4f 56 bc
       -0.08619476 0.1466407 0.016237715 -0.0130805215
000080 3d d8 95 bd 4e 81 ed bd d8 ad 81 3d ff d5 d5 3c
       -0.07316635 -0.115969285 0.06331986 0.026103018
000090 32 6e 86 3b ce f1 8a 3d 4d 41 1d 3e b8 5d 50 bd
       0.004102492 0.06784402 0.15356942 -0.050870627
0000a0 08 40 68 bd c0 30 92 3d 3f 2a 00 3e 72 40 e5 bd
       -0.05670169 0.071382046 0.12516116 -0.111939326
0000b0 ee a7 31 be 0a ac 60 3d d9 bf 55 3d 2b 88 6b 3d
       -0.17349216 0.05485157 0.052184913 0.057502907
0000c0 5e 03 9f 3d 1c 60 b8 bd 9b a5 eb 3d 23 0b 09 be
       0.07764314 -0.090027064 0.11506196 -0.13383155
0000d0 2c 4b fd 3d 95 7c 17 3e 2b 44 ae 3d ac da 29 3e
       0.123678535 0.14793618 0.08509096 0.16587323
0000e0 08 39 0f be 64 25 34 be 54 ef 29 be 68 05 82 3d
       -0.139866 -0.17592388 -0.16595203 0.063486874
0000f0 50 5d ba 3d 66 eb a4 bd aa f6 28 3d a1 72 df 3d
       0.09099829 -0.08052711 0.041250862 0.109105356
000100 54 2a 43 be 21 8b 18 3e 80 53 75 3d e5 ad a6 bc
       -0.19059116 0.14896823 0.059894085 -0.020346591
000110 db 32 36 3e 1c 62 db 3d 6b 1f d1 3d 06 48 cf 3d
       0.17792837 0.10712072 0.102110706 0.10121159
000120 c1 2f c5 3d f0 e2 0e 3d 85 12 d5 bd 38 03 da bb
       0.09628249 0.034884393 -0.10403923 -0.0066532157
000130 57 00 dd bd cf b5 5f 3c 5a cb 44 39 05 5a 00 bd
       -0.107910804 0.013654186 0.00018767771 -0.03133585
000140 ff 92 f8 bd 1e 70 94 bd db ed ba 3d c5 a5 c9 3d
       -0.12137412 -0.07247947 0.091273986 0.09846071
000150 41 6f b3 3d d0 bf a3 bd f5 bb 63 bc 47 5d 98 bd
       0.087614544 -0.0799557 -0.013899793 -0.07439666
000160 14 12 06 3e ad 27 bc bd bc bb 9a 3d dd 52 0a 3e
       0.13092834 -0.09187255 0.07555339 0.13508172
000170 41 af 2b be 18 ad 76 bc d8 82 57 bd 60 98 e3 bd
       -0.16766073 -0.015055917 -0.052615017 -0.111130476
000180 43 44 bf 3d 54 c1 8e 3b 44 27 31 3e de d1 9b bd
       0.09339192 0.0043565426 0.17300135 -0.07608388
000190 90 09 51 3d 95 3c 22 be b0 e9 64 bd a3 57 09 3d
       0.05103451 -0.15843423 -0.055886924 0.033530843
0001a0 33 18 16 3e 9e 6d 7b 3d a6 1f 1e be 74 f1 24 3d
       0.14657669 0.061383836 -0.1544176 0.04026933
0001b0 61 38 ee bd 74 73 fc 3c c9 99 1e be d4 fb 18 bd
       -0.11631847 0.030816771 -0.15488352 -0.037349537
0001c0 66 0e a2 3d 5c e5 2d be c2 19 35 be d8 89 5a 3d
       0.079129025 -0.16982025 -0.17685607 0.053354114
0001d0 57 22 3b 3d ae 20 bc bb 84 75 31 3e 4a 17 95 bd
       0.045687046 -0.0057412004 0.17329985 -0.07279833
0001e0 48 c2 9d bd 01 99 aa bd de da 86 bd 5e e6 04 bc
       -0.07703072 -0.083299644 -0.06584714 -0.008111564
0001f0 2e 0e f9 3d 31 10 ff bc 7a 14 97 3d 5f bc a0 bd
       0.12160908 -0.03113565 0.073769525 -0.07848429
000200 f2 f7 24 3e c9 5a cb 3d 0e 6a 34 be de 6e c3 bb
       0.16110209 0.09929425 -0.17618582 -0.005964144
000210 66 5f 2b be 11 4c 23 3d 08 71 2f be b7 12 e2 bd
       -0.1673561 0.039867464 -0.17132962 -0.11038726
000220 20 5c 45 3e 14 1c f1 bd e6 cf 02 3e 46 e2 40 3d
       0.19273424 -0.117729336 0.1277462 0.04709079
000230 44 94 be 3d f3 ce e9 bd ff 0a 0d 3e 5a 76 50 3d
       0.09305623 -0.114164256 0.13773726 0.05089412
000240 ab 0b 35 3d 55 48 9a 3d d5 5b 3d be 41 38 c0 bd
       0.04420058 0.075333275 -0.18492062 -0.093857296
000250 17 e8 f2 3d dc ad 74 bd ec 47 18 be 42 c2 94 3c
       0.11860674 -0.059736118 -0.14871186 0.018159036
000260 80 a3 a4 bd 88 8e 55 bc 05 b1 0f be 33 e5 bc 3d
       -0.08038998 -0.01303447 -0.14032371 0.09223404
000270 6f 6b 0f be a4 29 3e 3d 1d a1 f3 3d cf 03 82 3d
       -0.14005826 0.04642643 0.11895964 0.06348383
000280 27 8c da 3c ec 63 86 bc 72 42 c7 bb 38 80 8a bd
       0.026678158 -0.016405068 -0.006080919 -0.06762737
000290 d1 6e 9e bd e6 9f 9a bd 04 23 d4 bd ec 15 3a 3e
       -0.0773598 -0.075500295 -0.10358241 0.18172425
0002a0 54 e1 83 bd a7 72 c0 3d 0b 98 17 3e 75 19 52 bd
       -0.06439462 0.09396868 0.14804094 -0.05129381
0002b0 7d 90 3e bd ee 5b 98 bd 41 c4 a5 bc d8 f0 c8 3d
       -0.046524514 -0.07439409 -0.020235183 0.09811562
0002c0 2a 34 30 be 11 75 6c bd 2e 7d 31 3d e3 3d b8 3d
       -0.17207399 -0.05772883 0.04333227 0.08996179
0002d0 15 b0 b0 3d c7 b7 8e 3d e7 d7 8e 3d d2 8b 0b 3d
       0.08627335 0.069686465 0.06974774 0.03406889
0002e0 07 0c 7b 3c b0 05 39 bc b4 35 b4 bd 62 3b 94 bd
       0.015322692 -0.01129286 -0.087993056 -0.07237889
0002f0 af 2d 2b 3c f2 92 e4 bc 8f 20 af 3c 8d 22 3e 3d
       0.010447904 -0.0279021 0.02137783 0.04641967
000300 0b 26 0f 3e c7 41 55 bd 92 a2 e3 bd df 60 f7 bd
       0.13979356 -0.052064683 -0.11114992 -0.120790236
000310 a4 e9 9e bd 3b 05 52 3d 1e cf 08 be 24 a4 58 bd
       -0.07759407 0.05127452 -0.13360259 -0.05289091
000320 bf 21 29 bd a2 cd 07 be b0 ab de 3d d1 c4 cb bd
       -0.04129195 -0.13262036 0.108725905 -0.09949649
000330 0e e5 e5 bc 3f 36 ab bd 12 0b 16 bd 16 33 33 3d
       -0.028063323 -0.08359956 -0.03663165 0.04374989
000340 85 51 26 bd f5 dd c4 bc d1 c2 a8 3d 81 6a 9d bd
       -0.040605087 -0.024031619 0.08240283 -0.0768633
000350 ac 60 58 bd af ea b3 bd 3f 0c 4d 3a 74 3e e1 bd
       -0.05282657 -0.08784997 0.0007821954 -0.1099824
000360 2c 7d c3 3d 61 fe e1 bd 49 28 a4 bd be e8 a9 bc
       0.09545359 -0.11034847 -0.08015496 -0.020740863
000370 55 7d 9b 3d 1f dc a3 3c c2 9e 96 3d d6 e7 00 be
       0.075922646 0.020002423 0.073544994 -0.12588438
000380 ff ed bc 3c 8c 7d 09 3d 9a 9d be bd 18 41 c4 bd
       0.023062704 0.033566996 -0.09307404 -0.09582728
000390 1e 8b 9b 3d 07 83 c9 bb 2b 17 1a 3e 4d 46 a9 3d
       0.07594894 -0.006149653 0.150479 0.08265362
0003a0 7f 9f 5d bd 53 75 84 bd 5d db 1c 3b 94 73 19 be
       -0.054107185 -0.0646769 0.0023934462 -0.14985496
0003b0 5c b8 20 bd c4 16 28 be dd e7 fa 3c 8f f9 9e 3d
       -0.03923832 -0.16414934 0.03062814 0.07762443
0003c0 19 05 9d 3c 4f 8d 9b bd 96 c6 21 be 99 2b dd bc
       0.01916747 -0.07595312 -0.15798411 -0.026998328
0003d0 8c 08 84 3d 4e d0 c3 bc 7f 3e 62 3d 62 a9 03 3e
       0.06446943 -0.023903038 0.055235382 0.12857583
0003e0 d4 76 de 3d 72 ad 12 bb 14 8f 8c bd 68 f8 e4 3d
       0.108625084 -0.0022381213 -0.068632275 0.11180192
0003f0 be 69 b5 3c 8b 5d 30 be 46 e0 03 be 90 41 08 bd
       0.022145148 -0.17223184 -0.12878522 -0.03326565

4.bias f4 [40]
000000 38 6a dd bd 60 c7 3f bd 27 9e 42 3d 99 c9 16 be
       -0.10811275 -0.046821 0.047514107 -0.14725341
000010 80 ca 0f 3e 57 fb da 3d 4f cc 46 bc 67 f5 07 bd
       0.14042091 0.106924705 -0.012133672 -0.03319302
000020 fe c7 01 bd 9e d9 1b be 5b 7c 37 be 7b be 34 3e
       -0.031684868 -0.15219733 -0.17918532 0.17650788
000030 cf d4 db bd 4b 80 17 be b2 33 de bc a2 de 9d bc
       -0.107339494 -0.14795034 -0.02712426 -0.019271199
000040 fb b5 64 3d c8 f6 e7 bd 96 ee 8f 3c 4a c6 7f bc
       0.055837613 -0.11326367 0.017569821 -0.015611241
000050 ba 84 18 3e aa d9 d3 3d e3 8a ca 3d bd f3 0e bd
       0.14894381 0.103442505 0.09889772 -0.034900416
000060 da 5f ad 3d ab f7 27 be 3e c6 cd 3d 0f cb 01 be
       0.08465548 -0.16403072 0.10047577 -0.12675117
000070 40 bb 20 3e be b9 33 be cc 04 c7 3d db b6 c6 bd
       0.1569643 -0.17551324 0.09717712 -0.09702846
000080 25 d7 03 3e ce 0c 85 3d dc b7 ed 3d 04 99 1e be
       0.1287504 0.06496583 0.11607334 -0.15488058
000090 08 40 89 3d e9 14 10 be 15 36 e8 bd 03 a6 cc 3c
       0.06701666 -0.14070477 -0.1133844 0.024981504

6.weight f4 [40, 40]
000000 f5 2c 38 3c b6 29 26 be 95 81 db bd 3b b5 85 bb
       0.011241187 -0.16226849 -0.10718075 -0.0040804422
000010 ed a7 b2 3c a2 00 cd 3d dc 4f 1d 3e df 8c 22 bd
       0.021808589 0.10009886 0.15362495 -0.039685126
000020 e5 cd 92 bd f0 d6 d6 bd 34 d1 2b 3e 4e d8 00 be
       -0.071681775 -0.10490215 0.16779023 -0.12582514
000030 49 fb 85 bd 19 29 c9 bd 20 65 15 be 5c 7f 8c 3d
       -0.065420695 -0.09822292 -0.14589357 0.068602294
000040 06 4e 97 bd 64 ee 5f 3d 13 ca 13 bd 3f 70 e0 bc
       -0.07387929 0.054670706 -0.036081385 -0.027397273
000050 ac 80 8c bd 2f da f7 3c 1e bd 06 3d 94 f8 1c 3e
       -0.0686048 0.030255405 0.0328952 0.153292
000060 e9 da 2d 3e f1 c3 ba bd 94 38 2c be 3b 30 5b 3c
       0.16978039 -0.09119404 -0.16818458 0.013378198
000070 4f 32 ef bc e4 ad fe 3d e6 a9 f1 3d c8 d8 41 3b
       -0.029198794 0.12435511 0.11799984 0.0029578675
000080 d0 5b 18 be f7 23 65 bd ae e7 10 3e 47 0c c1 3d
       -0.14878774 -0.055942502 0.14150879 0.0942617
000090 3c 07 9a bd 4a 99 3e 3d 31 c7 ea bd 68 7b 02 bd
       -0.07520911 0.046532907 -0.11463774 -0.03185597
0000a0 8b 09 96 3d 43 4a fd bc b4 41 8e 3d 4d 6b 2a be
       0.07326039 -0.0309192 0.069461256 -0.16642494
0000b0 c1 c2 24 3e ce cb ea 3d 79 de 84 3d 83 f7 ad 3d
       0.16089918 0.11464654 0.06487746 0.08494475
0000c0 e5 ea 55 bc af b4 e8 bd 07 c8 e6 bd dc 2c 91 bd
       -0.0130564915 -0.11362588 -0.11268621 -0.07088634
0000d0 0e b8 2c 3e 7a cd a8 bd 81 60 27 3d 3a 49 3f be
       0.16867086 -0.082423165 0.040863518 -0.18680277
0000e0 69 65 9a 3d bf 81 ba bd fc f3 ba bd af 6b 62 3d
       0.07538874 -0.09106778 -0.091285676 0.055278476
0000f0 cd 5f e0 bd c2 16 57 bd d2 2f bf bd 5d 0d 7d 3d
       -0.109557725 -0.052511938 -0.09335293 0.061780322
000100 ec 40 26 be 2c 88 49 bc e8 82 ec 3d 2d d3 27 be
       -0.16235703 -0.012300532 0.11548406 -0.16389151
000110 22 54 f2 3d 88 5e bb 3d 2c da 86 bd 3c 45 51 3d
       0.11832453 0.0914889 -0.06584582 0.051091418
000120 f4 98 ad 3d 0b 85 2d 3e 58 bf ac 3d 26 af 2c be
       0.08476439 0.16945283 0.084349334 -0.16863689
000130 04 e4 29 be 27 b7 35 be 15 c2 dd bd 21 d7 82 bd
       -0.16590887 -0.17745648 -0.10828034 -0.06388689
000140 5b 0c c0 bd 07 a8 0f 3e 02 9d 0a be 83 52 26 be
       -0.093773566 0.14028941 -0.13536456 -0.16242413
000150 69 51 d1 bd 4b 03 64 bd 4a 42 f2 3d 6d 0c 7a 3d
       -0.10220606 -0.055667203 0.1182905 0.061047006
000160 35 28 56 bd 4b 23 a8 bd f5 63 16 be e5 00 8a bc
       -0.05228444 -0.082098566 -0.14686568 -0.01684613
000170 70 1a f5 3d 83 8a 95 3d 85 8f 19 3e 1f b2 d4 bc
       0.11967933 0.0730181 0.14996155 -0.025963841
000180 39 2f 50 bd f2 1e 04 be db e8 3f 3e ae f2 dc bd
       -0.050826285 -0.1290243 0.18741171 -0.10788475
000190 fd a0 98 3d 4f 14 4e bd 49 ba 3a 3e 54 14 65 3d
       0.07452581 -0.050312337 0.18235125 0.05592759
0001a0 b8 ff 99 bd 15 0d 2c be fa df 66 3d 61 64 16 be
       -0.075194776 -0.16801865 0.056365944 -0.14686729
0001b0 83 dc 01 3a de c6 47 3b 07 8b db 3d 83 dc cf bb
       0.0004953818 0.0030483524 0.10719877 -0.0063434257
0001c0 ea 16 91 bd b8 fd c7 bd c0 5c 40 be 8f b3 7f bc
       -0.07084449 -0.0976519 -0.18785381 -0.015606775
0001d0 aa 3e 07 be e8 e2 fa bc dd 4a e5 bd 21 08 0d be
       -0.13207498 -0.030625775 -0.1119592 -0.13772632
0001e0 5d f6 10 3e 68 38 62 3d b3 07 0c 3e b2 2b 3d 3e
       0.1415648 0.055229574 0.13674812 0.184737
0001f0 14 33 0a be af c3 f3 bd 80 36 b0 bd 7f c6 8b 3d
       -0.13496047 -0.11902558 -0.08604145 0.068249695
000200 f7 2a f0 3d 7e e5 24 3e fa 22 ae bd 33 1b f4 bd
       0.11726945 0.1610317 -0.08502765 -0.1191925
000210 4b 71 f5 3d 5b f5 cc bd 57 7e 0d be 09 f1 bb 3d
       0.119844995 -0.10007735 -0.13817726 0.09176833
000220 85 1a 2f be cc 70 43 bc a1 26 07 3d 46 e0 cb 3d
       -0.1709996 -0.011928748 0.032995824 0.09954886
000230 7c fb 58 bd 79 47 df bd 99 2c 6a 3d 9c 98 44 3e
       -0.05297421 -0.10902304 0.057171438 0.19198841
000240 bd c1 ad bd d9 23 de 3c ca 89 14 be 33 29 43 bd
       -0.08484218 0.027116703 -0.14505687 -0.047646713
000250 50 6a 1a 3d 83 9e da 3d af c9 1d 3d 4b 00 3c be
       0.037699044 0.10674765 0.03852242 -0.18359487
000260 2e 5e 91 bd 12 97 08 3d 1e 9f b0 3c 11 42 87 bc
       -0.070980415 0.033347197 0.021560248 -0.016510995
000270 60 e1 47 bd 60 db 3b 3e 41 cb bb bd 0f cb c3 bd
       -0.04879892 0.18345404 -0.09169627 -0.09560215
000280 4a 16 12 3e 2d f8 03 be d6 09 04 3e b4 93 73 bd
       0.14266315 -0.1288764 0.12894377 -0.059467033
000290 ad f4 56 bd f6 74 d8 bd dc 3e 22 3e 8b eb 9f 3d
       -0.052479435 -0.105691835 0.15844291 0.07808598
0002a0 a8 7f 28 3d ec 32 f7 3c ed c8 cf bc d4 b7 e5 bd
       0.041137367 0.030175649 -0.025364364 -0.11216703
0002b0 a4 2d b6 bd 67 f2 8d 3d ad 38 63 bd db f5 0a 3e
       -0.08895424 0.06931 -0.055473972 0.13570349
0002c0 32 72 6d bb 9c 69 f3 3c c2 86 05 be 8e f8 1c 3d
       -0.0036231396 0.029713444 -0.13039687 0.038322978
0002d0 0a f6 31 be 29 73 86 3d 96 44 f8 3c a3 ba 69 3d
       -0.17379013 0.06564934 0.030306142 0.057062756
0002e0 a3 69 0e 3e a0 41 87 3d ce 44 94 bd f1 de a9 bd
       0.13907485 0.06604314 -0.07239686 -0.08294476
0002f0 72 9b 33 be 01 86 db 3d 97 e6 55 3d 49 db 17 be
       -0.17539766 0.107189186 0.05222186 -0.14829744
000300 66 bf 7a 3c 4f 96 b1 bd 71 cd 25 3e 3d be e5 bc
       0.015304422 -0.08671247 0.16191651 -0.028044814
000310 fa a0 21 3e cb ff 0e 3e 2e 98 eb 3d 6b 69 10 3e
       0.15784064 0.13964765 0.11503635 0.14102714
000320 40 3f 5e 3c fd 74 b4 3d 29 40 24 be 8b df 8f bd
       0.013564885 0.08811376 -0.160401 -0.07025059
000330 73 46 44 3b 44 cc e6 3d 74 74 c3 bd 0e a0 e4 3d
       0.0029949218 0.11269429 -0.09543696 0.111633405
000340 77 e7 a9 3d d8 a7 0c 3d 08 6a 63 3d 30 d8 66 3c
       0.082961015 0.034339756 0.05552104 0.014089629
000350 b3 2b e2 3d 45 1d b2 bd bc f9 2e 3e 83 2f 1f bd
       0.11043491 -0.08696989 0.17087454 -0.03886367
000360 65 88 cc 3c 17 09 31 be 3f 14 37 3e 9a a0 15 3c
       0.024967382 -0.17288624 0.17878817 0.009132529
000370 42 96 1d 3e 82 7c 0c be a6 2f ca bd 97 ee 76 bd
       0.1538935 -0.13719371 -0.098723695 -0.06028613
000380 8e a7 23 be 7e c1 94 bb 22 6a 14 3d 32 d5 bc bd
       -0.15981886 -0.0045396676 0.03623403 -0.09220351
000390 c9 a2 ec 3d 69 c0 8b 3d 63 4b e3 bd fd a5 bb bd
       0.11554486 0.06823809 -0.11098363 -0.09162519
0003a0 61 4d 01 3e 73 11 7a bd 1e f9 ce bb 1a aa 9a bd
       0.12627174 -0.061051797 -0.006316318 -0.075519755
0003b0 b6 61 b5 bb 06 0a f9 bd 4a ba 0f bd 4a ec ae bd
       -0.0055353297 -0.12160115 -0.03508977 -0.08541162
0003c0 62 9f e4 bd 98 37 1e bd 09 05 b8 3b 8b bd 82 3d
       -0.11163212 -0.038627237 0.0056158346 0.06383809
0003d0 26 aa ac 3c 71 fc 1e 3d 65 78 ba 3d 7c ee 2f 3e
       0.021077227 0.038814966 0.09104995 0.17180818
0003e0 85 dd 51 bd c4 ed 2b be ab 3d f0 3b 51 a4 b1 3d
       -0.051236648 -0.16789919 0.00733157 0.08673919
0003f0 5f 1f b0 bd f4 5c 36 be 15 45 60 3d 98 5d ea 3d
       -0.085997336 -0.17808896 0.05475338 0.11443633

6.bias f4 [40]
000000 24 9b ce bd 15 87 3a 3e 0d 54 f4 3b b8 5e d8 3d
       -0.100881845 0.18215592 0.0074563087 0.10564941
000010 f9 9d a9 3c 41 d4 3d 3e 56 4e 10 3e 51 15 12 3e
       0.02070521 0.18538 0.14092383 0.14265944
000020 b1 62 2a 3e 3c 7b 35 bc 26 e5 51 bd b6 2e ab 3d
       0.1663921 -0.011076745 -0.051243924 0.08358519
000030 ca 7a 21 3e 4a 41 c4 bc ea fd 21 be 21 4b b3 bd
       0.15769497 -0.023956914 -0.15819517 -0.08754564
000040 20 c4 cc bd fb 82 c1 3c 76 6a 12 3c dc e3 35 bc
       -0.099983454 0.023622027 0.008936515 -0.011101689
000050 a1 45 d9 bd 0c b6 97 3d 48 f7 1c be 00 30 f9 3d
       -0.10608984 0.074077696 -0.15328705 0.121673584
000060 61 7b 38 bd 2f b0 82 3d 96 96 9f 3d 90 fd d5 bc
       -0.04503954 0.063812606 0.07792394 -0.026121885
000070 7c f3 24 3e 96 db 0e 3d 96 6b c1 bc 05 2c ff bd
       0.16108507 0.034877382 -0.023610871 -0.12459568
000080 bf 07 5a 3d a1 ba a7 3d 6e 2a 71 3d c8 34 9b 3c
       0.053230044 0.081898935 0.058878355 0.018946066
000090 34 09 1c 3e da b6 b7 3d 35 bb 13 3e 38 ec 80 bd
       0.15237886 0.08970423 0.14426883 -0.06295055

8.weight f4 [40, 40]
000000 c2 0a 24 bc 0d ef 99 bd bc 7a a8 bd 12 a9 48 bd
       -0.0100123305 -0.075162984 -0.08226535 -0.048989363
000010 2b 9e 99 bc a5 64 68 bd 4e 94 c1 bd 80 cf bc 3d
       -0.018752178 -0.056736607 -0.09452115 0.09219265
000020 6e 81 c3 3d 95 8f 84 bd d9 2f 8f 3d ec c2 a6 bd
       0.09546171 -0.064726986 0.06991548 -0.08142647
000030 40 d1 28 3e d8 07 fa 3d ad 27 bc bd c0 85 36 3e
       0.16486073 0.12208527 -0.09187255 0.17824459
000040 5e 61 00 be 64 ca 2f bd 41 7d 27 3e 1b 98 a9 ba
       -0.12537143 -0.042917624 0.16356374 -0.0012939008
000050 5b b3 cc bd 65 00 83 3d 2d bb 80 bd 48 13 7a 3d
       -0.09995147 0.063965596 -0.06285701 0.061053544
000060 26 70 af 3d 6a 07 e2 3d 07 17 93 3d c5 0f a7 3d
       0.085663125 0.1103657 0.071821265 0.08157305
000070 a7 87 26 3d f9 86 6c 3d 86 87 24 bd ab c0 fe 3d
       0.040656712 0.057745907 -0.040168308 0.12439092
000080 34 09 ff 3d 7e 19 ab 3c 91 f2 c8 3d 28 f8 3d 3d
       0.12452927 0.020886179 0.09811891 0.04637924
000090 9e 02 ba 3d 7f be bb 3d 35 41 8f bd 79 2b a6 bc
       0.090825304 0.091671936 -0.06994859 -0.020284401
0000a0 4f c5 1a bc 8e 79 34 be 64 6d 35 be dd 36 57 3c
       -0.009446456 -0.17624494 -0.1771751 0.013135639
0000b0 88 d7 0c 3e 8f f8 00 be 87 b6 ef 3c d6 9a 9d 3d
       0.13754094 -0.12594818 0.02926184 0.07695548
0000c0 29 7c 0a be 39 53 db 3c 2d ae 59 3d 5e 39 2b be
       -0.13523926 0.026773082 0.053144623 -0.16721103
0000d0 d4 39 aa bc ec d8 30 be 65 b3 25 3e c1 d5 13 3d
       -0.020779528 -0.17270249 0.16181715 0.036092523
0000e0 17 f0 a7 3d b1 e4 de 3d e1 c7 c5 3d 11 ba 04 3e
       0.082000904 0.10883463 0.096572645 0.12961604
0000f0 89 1f b4 3d af 31 0e be 02 d2 2c 3e e1 b5 a6 3d
       0.08795077 -0.1388614 0.16876987 0.081401594
000100 49 c0 18 bd 78 61 ae bd 9b 97 00 3e cf 69 da ba
       -0.037292752 -0.085146844 0.12557833 -0.0016663613
000110 3c b3 bf 3d 2c 10 69 bc 27 ab 3c 3e 7b ca 14 be
       0.09360358 -0.014225047 0.18424664 -0.14530365
000120 68 8c 7a 3c 03 7e 7b 3c 9c 7c d5 bc d5 e2 ee 3d
       0.0152922645 0.015349868 -0.026060395 0.116643585
000130 5e bc 33 3c 38 ba 3a 3d d5 d7 ab 3d 78 84 82 3c
       0.010970203 0.04558775 0.08390776 0.015932307
000140 0b 42 f5 3c 7a b9 2d be 64 07 24 bd 26 15 7b bd
       0.029938718 -0.16965285 -0.04004611 -0.061299466
000150 d3 b8 05 3e a2 68 c9 3d b1 27 40 be 52 1c ef bd
       0.13058786 0.0983441 -0.18765141 -0.116753235
000160 8e 60 e6 3d 70 bc bb bd f3 06 27 3e c1 47 ed 3d
       0.11248885 -0.09166801 0.16311245 0.115859516
000170 b4 43 a9 bd 1b 57 2c be 1a dc f5 3d 29 40 5f 3d
       -0.082648665 -0.16830103 0.12004872 0.054504547
000180 93 68 35 3e 37 15 6d bb e9 0c 3b 3d 94 73 2f be
       0.17715673 -0.0036175975 0.04566661 -0.17133933
000190 15 cd 7a 3d 1b 25 8a bb 6e da 0d 3e 20 1d 73 bd
       0.061230738 -0.004215849 0.13852856 -0.059353948
0001a0 27 82 b9 3c 2c a0 09 be af 6e 16 be aa be 0b 3d
       0.02264507 -0.13440007 -0.1469066 0.03411738
0001b0 56 b5 81 bc cd 39 b5 3c d9 d7 d4 3c 7f 5e 48 bc
       -0.015833538 0.022122288 0.02598183 -0.012229561
0001c0 14 38 3a bd 34 87 39 3d 97 ee 19 be b1 0a cc bb
       -0.045463637 0.045294955 -0.15032421 -0.0062268605
0001d0 a9 b5 42 3d 5a 48 ef 3d 19 cd ed bd ba 78 26 3e
       0.047536526 0.11683722 -0.11611385 0.16256991
0001e0 2c 52 a3 bd c4 ac 6b 3d e8 fc d4 3d 33 22 0a 3b
       -0.079746574 0.05753781 0.103998005 0.0021077513
0001f0 b8 11 97 3d f2 16 33 be 20 17 b4 bd bb 68 61 bd
       0.073764265 -0.17489222 -0.08793473 -0.05503152
000200 85 a5 30 be ea 62 60 bd 92 68 09 3e e5 fe 25 bd
       -0.1725064 -0.05478183 0.13418797 -0.04052629
000210 bf 1d 09 3e 9b 08 2c be cd 89 b5 3d b3 a9 03 3e
       0.13390253 -0.16800158 0.08864174 0.12857704
000220 c6 f2 36 3e 9c 21 62 bd c1 0e 2c be 29 68 b1 bd
       0.17866048 -0.055207834 -0.16802503 -0.08662445
000230 a9 19 12 3e f7 a0 45 bc 2b b3 34 3e e6 ca b9 bd
       0.14267601 -0.012062303 0.17646472 -0.09071903
000240 67 46 92 bd e9 02 5b 3d 7c 55 ef 3c c1 2e 05 be
       -0.071423344 0.053469572 0.029215567 -0.13006116
000250 bf 32 fa 3d 3e 70 b0 bd 6b 0c d3 bd 1a 95 65 3d
       0.1221671 -0.086151585 -0.10305103 0.056050397
000260 98 58 e9 bd f0 a0 cd bd 94 3c e9 bd 12 93 8f 3c
       -0.11393851 -0.10040462 -0.113885075 0.017526183
000270 1a 3f 4a 3d df 75 06 3e 7a e2 eb bd 1a 9e fd bb
       0.049376585 0.13130902 -0.11517806 -0.0077397944
000280 f4 ab 47 3e 9a 08 fb bd 4d e9 d8 bd 11 5d 95 bc
       0.19499189 -0.122575 -0.105913736 -0.018232854
000290 3a c8 b4 bd b9 d1 22 be 48 1f cb 3d 78 05 4f bc
       -0.08827253 -0.15900315 0.09918076 -0.012635581
0002a0 d5 dc 85 bb 0a 56 03 3d e4 bb 10 3e cd 8a 72 3d
       -0.004085163 0.032064475 0.14134175 0.059214402
0002b0 30 9a ab 3d 8d 3c 5b 3c 56 70 28 3e 93 a6 a9 3d
       0.08379018 0.013381136 0.16449103 0.08283725
0002c0 ad 87 4a 3c f2 8c aa bc d6 72 08 be e7 36 27 be
       0.012361449 -0.020819161 -0.13325056 -0.16329537
0002d0 55 65 48 3e b2 20 2b be d9 0a 66 bd 3f 67 f5 bd
       0.19569905 -0.16711691 -0.05616269 -0.11982583
0002e0 3e 77 97 bd 40 7b 8f bc 08 32 0e 3d 65 ae 38 be
       -0.073957905 -0.017514825 0.034715682 -0.18035276
0002f0 25 f4 d1 bc 7c 9d 32 be 88 dc 96 3d 6a fd ae 3d
       -0.025629112 -0.17442888 0.07366282 0.08544429
000300 34 bf d8 bd d9 4b e4 bd aa f8 5e 3d cc e8 1a be
       -0.10583344 -0.11147279 0.054436363 -0.15127867
000310 f8 10 90 bd 64 ee ca bd e7 e5 7a 3d 5b a8 cb 3d
       -0.070344865 -0.09908751 0.06125441 0.09944221
000320 5b 45 d4 bd 47 3c 1b 3e 45 49 42 3e 07 5f 69 3d
       -0.10364791 0.15159713 0.18973263 0.05697539
000330 31 d6 1b be 5e e2 9f 3b 9c 14 2b 3e e2 e1 10 3e
       -0.15218426 0.00487928 0.1670708 0.14148667
000340 e5 d9 77 bc 7c 57 02 3e ad a5 01 be c3 aa a9 3d
       -0.015127634 0.12728685 -0.12660857 0.08284523
000350 10 84 2d 3e 70 3b 90 3d cf bb 2a be 0d 72 7b 3d
       0.16944909 0.07042587 -0.16673206 0.061388064
000360 a0 12 49 3d 6a ba 0b 3e e7 23 80 bd 1c d0 05 3c
       0.049090028 0.1364533 -0.06256848 0.008167293
000370 dc e8 45 bd 22 44 6d 3c 35 6a 99 bd 1e d8 a8 bd
       -0.048317775 0.014481576 -0.074909605 -0.08244346
000380 1b 04 51 3c 65 08 ef 3d dc 61 13 3c 28 0f 22 3e
       0.0127573265 0.11671523 0.008995499 0.15826094
000390 3f 7c 1b 3d 95 b1 a6 3d 72 f4 0a 3c b7 0d 50 bd
       0.037960287 0.0813934 0.008481132 -0.05079433
0003a0 05 10 08 3d 85 5a b6 3c 4f b9 cf 3d 2b 03 33 bd
       0.033218402 0.02225996 0.10142767 -0.043704193
0003b0 dc 33 0c bd 84 27 36 be a2 08 e1 bc 1c b1 18 3c
       -0.034229144 -0.17788512 -0.027469937 0.00931957
0003c0 91 be ba 3d 8c 59 f7 bd cf 5a ac bc ae f8 9d 3d
       0.09118379 -0.120776266 -0.021039395 0.077134475
0003d0 20 79 f7 bd fc 26 11 3e 49 27 2f 3d 85 ea 04 be
       -0.1208365 0.14175028 0.042762075 -0.12980087
0003e0 c6 47 81 3d 81 21 62 bd 0d ef e8 b9 b7 e1 d7 bd
       0.06312518 -0.055207733 -0.00044428595 -0.105410986
0003f0 2e cb 45 3e 7e 1f fc bc 9a 5e 82 3d fe 50 92 bd
       0.19315788 -0.030776735 0.063657 -0.07144354

8.bias f4 [40]
000000 80 30 8c 3d 42 27 bc bd 7e 9b 0f be 81 a3 e0 3c
       0.06845188 -0.09187175 -0.1402416 0.027421715
000010 fe e0 c4 3d 92 02 b4 bd 10 a1 dc bd 1c 98 69 3d
       0.09613226 -0.08789553 -0.10772908 0.05702983
000020 9a 63 b6 bd 58 be f1 bd 9c 6c c7 3b 30 27 2f bd
       -0.08905716 -0.11803883 0.0060859453 -0.04276198
000030 6f c9 83 bd 2b 5b 17 3e c0 05 f6 3d 07 27 64 3c
       -0.06434905 0.14780872 0.120128155 0.0139253205
000040 ab 95 2d bc ce 18 3a bd 52 05 0d 3e c0 0a 3c 3d
       -0.010594766 -0.04543381 0.13771561 0.04590869
000050 b5 c9 35 be cd 44 84 bc 0e 19 77 3d ca 9a 97 bb
       -0.17752726 -0.016146088 0.06032663 -0.0046266066
000060 71 88 52 bc 2b d4 54 bd 64 21 65 3d a5 b3 ff 3d
       -0.012849913 -0.05196015 0.055940047 0.12485436
000070 5f 51 21 be e8 ad 0b 3e e0 cd ae 3d 53 01 b7 3c
       -0.15753697 0.13640559 0.08535361 0.022339499
000080 3b 87 5c bd 86 a0 5f bd c1 69 4b 3e 56 70 96 3d
       -0.053839903 -0.054596446 0.1986456 0.07345645
000090 ed 31 75 3a 8f bb 6e 3b 9d c4 0d 3e 5a 58 96 bd
       0.0009353448 0.0036427712 0.13844533 -0.073410705

10.weight f4 [40, 40]
000000 75 c7 1a 3e dd 6c ba bd 55 af 05 bc 86 69 93 bb
       0.1511515 -0.09102795 -0.008159478 -0.0044986634
000010 39 d4 e8 bd 9a 5b f5 3c 76 34 8d 3d 24 fa db bd
       -0.11368603 0.029950906 0.06894772 -0.1074107
000020 c7 f3 9b bd 73 c0 01 bd 35 f4 29 3e 23 47 e3 bb
       -0.07614856 -0.031677675 0.16597064 -0.0069359704
000030 c3 e1 f2 bd c7 86 7c 3a fe cd 4e 3e 0c 78 68 bd
       -0.11859467 0.00096331205 0.20195767 -0.05675511
000040 aa f6 11 3e c8 78 10 bd f8 4b 19 3e 0f 0b c6 bc
       0.14254251 -0.035271436 0.14970386 -0.024175195
000050 31 58 df 3d a1 95 46 bc 10 43 97 bd cc af 1a 3e
       0.10905493 -0.012120635 -0.07385838 0.15106124
000060 7d 04 e5 3d ff 0a 1b be f6 dd 27 bd 8d 2e 15 3e
       0.11182497 -0.15140913 -0.040983163 0.14568539
000070 32 b5 93 bb 66 0c a2 bb ef 27 5f bd 3e 39 21 be
       -0.004507684 -0.0049453257 -0.054481443 -0.15744492
000080 e5 d4 d9 3d 65 48 db 3d 63 a1 be bd 5b d5 b2 ba
       0.106363095 0.107071675 -0.09308126 -0.0013643907
000090 f9 b8 8e 3d 0f 37 d4 bd 37 7b 38 3e d1 ce 70 bd
       0.069688745 -0.10362064 0.18015753 -0.058790985
0000a0 69 37 b6 bd 34 89 3e 3b b3 42 21 3d e5 4b a4 3c
       -0.088972874 0.0029073479 0.03937025 0.02005572
0000b0 d5 ad 27 3e a7 96 97 3d fe 45 17 bd 4e e3 24 3d
       0.16374905 0.074017815 -0.036931984 0.040255837
0000c0 8e 66 a2 3c 93 c2 a0 bd 9e 50 13 be 79 f7 9c bc
       0.019824293 -0.07849612 -0.14386222 -0.019160973
0000d0 12 71 30 bd f3 2b 0d be 02 a8 97 3d cb 58 76 bd
       -0.043076582 -0.13786297 0.07405092 -0.060143273
0000e0 2e d8 c9 3d 84 00 79 3d d8 32 ac 3d d6 fb 87 3d
       0.09855686 0.060791507 0.08408135 0.06639831
0000f0 c9 2f 8d 3d 0a 66 ab 3d 65 98 0a 3e a0 d0 b0 bc
       0.0689388 0.08369072 0.13534696 -0.021583855
000100 ed f7 4a bd 80 f4 c4 3c d1 7a 3c bd 43 3e bd 3c
       -0.049552847 0.024042368 -0.046015564 0.023100978
000110 f8 8d e2 3c 26 df b6 3d 67 1f 19 be e7 53 3e 3d
       0.027655587 0.08929281 -0.14953385 0.046466734
000120 9b 9b cc bd 2d 45 de bd a8 94 5e bd 52 d4 16 bc
       -0.09990617 -0.10853038 -0.05434099 -0.009205895
000130 00 fe 96 3d c7 39 10 be 43 08 82 3d 8b de 07 3e
       0.073726654 -0.1408454 0.06349232 0.13268487
000140 12 95 7b bd e6 6d 8d 3c 86 bc a9 bd 2b 84 92 3c
       -0.06142146 0.017264318 -0.08287911 0.017885288
000150 a0 1c d7 3c 86 f2 5d bd 0a f4 a5 3d f9 d3 35 3e
       0.026258767 -0.054186366 0.081031874 0.17756642
000160 e8 4c 00 bc db c3 07 be 6e 8f 25 3d 09 d6 9c 3b
       -0.007830836 -0.13258307 0.04041999 0.004786257
000170 93 9c f9 3c d9 f0 24 3c bc a3 6b bc c1 4f f0 bd
       0.030470168 0.010067188 -0.014382299 -0.11733962
000180 bd 4a 1c 3e 23 de eb bd 10 87 09 bd 1e 1f fc 3d
       0.15262885 -0.115169786 -0.03357607 0.12310623
000190 65 28 ce bd 9d a2 25 bd 00 a0 da bd 81 7a c7 bd
       -0.100662984 -0.040438283 -0.10675049 -0.09740163
0001a0 bc 69 e9 3d 9e ab b6 bd 80 5b f3 bd 39 95 00 bd
       0.1139712 -0.08919452 -0.118826866 -0.03139231
0001b0 7d 04 cc 3c 21 a9 21 3e 63 6e 28 3e 3c d5 96 bc
       0.024904484 0.15787174 0.16448359 -0.018412225
0001c0 05 01 b3 bd 96 99 37 3d d6 44 ca 3c 06 16 31 3e
       -0.08740429 0.044824205 0.024691027 0.17293558
0001d0 f4 c6 dd 3b 23 61 eb bd db db 9a 3d 50 8e 78 bd
       0.006768102 -0.11493137 0.07561465 -0.060682595
0001e0 18 e5 a7 3d 1a 2f 90 3c d3 08 db 3c b1 93 69 3d
       0.08197993 0.017600585 0.026737606 0.057025615
0001f0 90 76 1f be b6 27 b2 bd 54 e6 43 3e 4b f3 33 3e
       -0.15572572 -0.086989805 0.19130832 0.17573278
000200 87 88 bb bd 9d b1 f6 3d 69 34 9a 3d 1e 78 a8 bd
       -0.091569 0.12045596 0.07529528 -0.082260355
000210 71 61 b2 bd 69 da 57 bd 9e f8 1f 3e b5 82 10 be
       -0.08709992 -0.052698527 0.15622184 -0.14112361
000220 c5 c9 fb bc 8a f3 f4 3d 01 8f 40 bd bf 02 3c 3e
       -0.03073586 0.11960514 -0.04701138 0.18360423
000230 87 2e 26 3d 1c f5 47 3d 73 5c 55 bc ce 37 70 3c
       0.040571716 0.04881774 -0.01302253 0.014661742
000240 b2 78 e8 3d f8 e5 90 3c 81 52 06 be 90 2c e4 bd
       0.11351146 0.017687783 -0.1311741 -0.11141312
000250 84 b8 20 be 14 38 25 3c b6 07 9f 3d 7f cc 05 be
       -0.15695387 0.010084171 0.077651426 -0.1306629
000260 65 63 88 3d 89 4b 07 3e 2a 28 ff 3d 7c 7a 8b bc
       0.06659583 0.13212408 0.124588326 -0.017026179
000270 be db 9e 3d 11 20 ca bd 0c 4e 11 3e 52 02 27 be
       0.07756756 -0.098693974 0.14189929 -0.16309479
000280 fd fc 2b 3d df 15 b3 bd 63 53 2c be fe 8c 34 be
       0.041989315 -0.08744406 -0.16828685 -0.17631909
000290 c8 4e fd bd 50 e9 c7 bd 5a 50 19 3e 6c 77 80 3c
       -0.12368542 -0.09761298 0.14972058 0.015681945
0002a0 ad 18 12 be 29 13 19 bd 52 69 31 bd 62 60 68 bd
       -0.14267226 -0.03737179 -0.043313332 -0.056732543
0002b0 3b eb 1c 3e 70 d3 d1 bd 4d c6 cb bd 35 b3 44 3c
       0.15324108 -0.10245407 -0.09949932 0.012005617
0002c0 7c 0f f7 3d 64 a3 46 be 6d 73 b4 3d 9c c6 45 3e
       0.120635 -0.19398266 0.08811078 0.19314045
0002d0 b7 a7 80 bd 68 1a 07 be 1a 8e 45 3d 72 0e e2 3d
       -0.06281989 -0.13193667 0.04823122 0.110379115
0002e0 de 1b 24 3c 76 63 2a be 08 68 50 bc e9 19 94 bd
       0.01001641 -0.16639504 -0.0127201155 -0.072315045
0002f0 06 85 2e be 5f 0d 0b 3e ea be 19 3e 58 81 cc 3c
       -0.17042932 0.1357932 0.15014234 0.02496402
000300 4e 28 02 be 8d d9 26 3e 43 20 1b 3e 34 1b 24 3e
       -0.12710688 0.16293927 0.15149026 0.16026002
000310 18 71 45 3c ef 90 f7 39 42 1e d7 bd 3c 5e a7 3d
       0.012050889 0.00047219495 -0.10503818 0.08172271
000320 4e ed 39 bd c4 4c f1 bd e4 6f 46 3e 13 72 a1 3c
       -0.045392327 -0.1178222 0.1937862 0.019707715
000330 d1 10 f9 3d de 5a 35 bd 41 c7 62 bd 16 2f c9 3d
       0.121614106 -0.04427611 -0.055365805 0.09823434
000340 4e 6f 2e 3e 2f 4e 0c bd ce 4a ce bc 2e dd 11 3e
       0.17034647 -0.03425425 -0.025182154 0.1424453
000350 a0 60 3f bc fe c8 8d bd 7a 41 d0 3d 30 31 2e 3e
       -0.011680752 -0.06923102 0.10168739 0.17010951
000360 18 8b 64 bd 8c ad 28 3e b7 9f 61 bd 9b c5 09 bd
       -0.055796713 0.16472453 -0.055083957 -0.033635717
000370 99 e0 2b 3e 3f 06 e0 3c f4 a9 85 3c cc a0 6f bd
       0.16784896 0.027346728 0.016316392 -0.058502957
000380 e3 a8 24 be dc 2f 25 3e 0e a3 ce bd 5b d9 1c be
       -0.1608005 0.16131538 -0.10089694 -0.1531729
000390 52 57 75 3d e3 38 63 bd cf 2a 14 bd 1c e2 58 3d
       0.05989773 -0.055474173 -0.036173638 0.05295001
0003a0 35 2a 18 3e 13 51 3c be 18 b2 09 be 72 a3 38 3b
       0.1485985 -0.18390302 -0.13446844 0.0028173593
0003b0 2d be 29 be cc bf 1f be 4c ad a9 3d 45 a0 c6 3d
       -0.16576453 -0.15600508 0.08285007 0.09698538
0003c0 d8 5b a9 bd 52 40 93 3d 4e 3b 69 3d 72 3b 7a 3c
       -0.08269471 0.071900025 0.056941323 0.015272962
0003d0 8f d3 39 3e d6 aa 3d bd 3a 85 7b 3d b0 9d 1e be
       0.1814711 -0.0463055 0.06140635 -0.1548984
0003e0 74 2a 12 bd 54 56 6d 3d 62 49 14 3d c4 7b ac bc
       -0.035685018 0.057943657 0.036202796 -0.02105511
0003f0 ab aa f2 3d 23 39 27 be fe 1f b7 bd 79 97 2b 3e
       0.118489586 -0.1633039 -0.08941649 0.16757001

10.bias f4 [40]
000000 d9 88 ce 3d 56 8b 59 3d ce c0 c9 3d 65 82 26 3e
       0.10084695 0.053111397 0.09851228 0.16260679
000010 0f 5f 08 3d 25 7a bc bd 99 eb bb bd ba d8 78 3d
       0.03329378 -0.09202985 -0.09175796 0.06075356
000020 37 2b 72 bd f5 a1 15 be 34 03 21 bd 9d 0b 03 3e
       -0.059123244 -0.14612563 -0.039309695 0.12797399
000030 6a a5 1e 3d 1e 93 bd 3d de 4a bd bd 4f 06 dd 3d
       0.03873197 0.09256576 -0.092427954 0.10792219
000040 88 84 39 3d e0 5d b6 bd 06 16 c5 3d c0 a8 47 3d
       0.045292407 -0.08904624 0.09623341 0.048744917
000050 0f 1d 07 bd b2 42 8e bd 2a 25 e1 3d 32 b0 36 be
       -0.032986697 -0.06946315 0.109934166 -0.1784065
000060 36 cb d0 3d 42 d2 8c ba 78 57 10 be 83 a3 61 bd
       0.101950094 -0.0010743814 -0.14095867 -0.055087578
000070 f3 fa 95 3d 9a d3 07 3e 17 74 1c 3e 1b a6 0f be
       0.073232554 0.13264313 0.1527866 -0.14028208
000080 69 2f 89 bd 7d 9e 18 3d 3f d2 38 3e 3f bf 2b 3e
       -0.06698496 0.03726052 0.18048953 0.16772173
000090 93 11 d6 3c 1f b5 3b 3e 2f 6d d3 bd e4 b1 e0 3c
       0.026131427 0.18330811 -0.103235595 0.027428575
