model-2.pth (torch, 59290 bytes, 19 tensors)

0.weight f4 [40, 3]
0	0x3eaeda6f	0.34151027
1	0xbea7edb6	-0.32798547
2	0x3f5cb559	0.86214215
3	0x3e49e3a7	0.19715749
4	0xbe14d730	-0.14535213
5	0xbef96a7f	-0.48714063
6	0x3ea8e9a9	0.3299077
7	0x3e85ce8d	0.26134148
8	0xbf0a5969	-0.5404268
9	0x3ea5baff	0.3236923
10	0x3da1fda9	0.0790971
11	0x3f5b8c10	0.85760593
12	0x3e61f9e8	0.22067988
13	0xbb524cf4	-0.0032089325
14	0xbf2b0dc2	-0.6681787
15	0x3eff5c3d	0.4987506
16	0x3f1f98d1	0.62342554
17	0x3e02cebe	0.12774178
18	0xbde1e39b	-0.110297404
19	0xbc8f1c92	-0.017469678
20	0xbe4b4361	-0.19849922
21	0x3e74c295	0.23902352
22	0xbca255d1	-0.019816311
23	0xbf1c5bf2	-0.610778
24	0xbe110af3	-0.14164333
25	0xbebaae3c	-0.36461055
26	0x3e7bb208	0.24579632
27	0x3ec568a8	0.3855641
28	0xbe4926a5	-0.19643648
29	0x3f137daa	0.57613623
30	0xbe80e903	-0.25177774
31	0xbe8babbe	-0.27279466
32	0x3e48b555	0.19600423
33	0x3e9f5c49	0.31125095
34	0x3e8f882b	0.28033575
35	0xbf3f00af	-0.7461042
36	0xbea71f0c	-0.32640874
37	0xbf2434a2	-0.6414281
38	0xbd28eaba	-0.041239478
39	0x3ea6ef62	0.3260451
40	0xbea10fff	-0.31457517
41	0x3ef1b08a	0.47205
42	0x3de89d7f	0.11358165
43	0xbe43071e	-0.19045684
44	0x3e340703	0.175808
45	0xbec36b09	-0.381676
46	0xbdea1481	-0.11429692
47	0x3e59d461	0.21272422
48	0x3da46561	0.08027149
49	0xbea4712e	-0.321176
50	0x3f058e99	0.5217071
51	0x3dce5840	0.10075426
52	0xbef24f88	-0.47326303
53	0xbf4892ab	-0.783488
54	0x3e227f33	0.15868835
55	0xbeee147e	-0.4650001
56	0xbf227504	-0.634598
57	0x3d9f6a81	0.07783986
58	0xbd7a1ede	-0.061064593
59	0xbebd40e1	-0.3696356
60	0xbe055c08	-0.13023388
61	0x3e3e9d0e	0.18614599
62	0xbf0daf59	-0.55345684
63	0xbe3f6ef3	-0.18694668
64	0x3de14534	0.109995276
65	0x3e2190e4	0.15777928
66	0x3dc5a4ba	0.0965056
67	0x3ec6aefc	0.38805377
68	0x3e85af9d	0.26110545
69	0x3e6cfde2	0.23143724
70	0xbe8825a5	-0.2659122
71	0x3e22f946	0.15915403
72	0x3f1eb90f	0.62001127
73	0xbf0bc153	-0.54591864
74	0xbf11d789	-0.56969506
75	0xbf0cb4d4	-0.5496342
76	0x3ebaed46	0.3650915
77	0xbec20315	-0.37892976
78	0x3f0b82ab	0.5449626
79	0xbe8dc373	-0.27688178
80	0x3d109e01	0.035306934
81	0x3ea85ae8	0.32881856
82	0xbf2393d7	-0.6389746
83	0xbf38333a	-0.71953166
84	0xbed4ab17	-0.4153678
85	0x3d278a9d	0.040903676
86	0xbf4fa249	-0.81107
87	0xbd225d32	-0.03963966
88	0x3effc55c	0.4995526
89	0x3e67bf23	0.22631507
90	0x3d7d93ef	0.06190866
91	0xbf1ac31c	-0.60453963
92	0xbef8af89	-0.48571423
93	0xbd5bf724	-0.05370249
94	0xbc222c5d	-0.009898272
95	0xbe411c9e	-0.18858573
96	0xbea72c24	-0.32650864
97	0xbe7c6005	-0.24646004
98	0x3f364be2	0.7120954
99	0xbe7dbc3a	-0.24778834
100	0x3ca1dfaf	0.019759981
101	0xbdb4e065	-0.08831862
102	0xbe415155	-0.18878682
103	0x3ce80f23	0.02832753
104	0x3f0f93c5	0.56084853
105	0x3ef130c6	0.47107524
106	0xbe02ecae	-0.12785599
107	0xbd592538	-0.05301401
108	0xbedd543a	-0.43228322
109	0xbea6623b	-0.3249682
110	0xbee6c7c9	-0.450743
111	0x3ec257b4	0.37957537
112	0x3d134cd9	0.03596196
113	0xbf2de1ef	-0.6792287
114	0xbd8fc382	-0.07019712
115	0xbeb5050b	-0.3535541
116	0x3f7de4bb	0.9917714
117	0x3e17a85e	0.1481032
118	0xbdbaf35e	-0.0912845
119	0x3ed44639	0.41459826

0.bias f4 [40]
0	0xbeccc98b	-0.39997515
1	0xbe25acc1	-0.16179182
2	0xbc787ebf	-0.015166937
3	0x3eb73692	0.3578382
4	0x3ecafb68	0.39644933
5	0x3e3f7f4a	0.187009
6	0xbf13ba1c	-0.57705855
7	0x3c811272	0.015755866
8	0xbec99237	-0.39369366
9	0x3f1a13c3	0.60186404
10	0xbe69a72b	-0.22817676
11	0xbeb62351	-0.3557382
12	0xbe80ae39	-0.2513292
13	0x3f1a7e94	0.6034939
14	0x3ea4d35a	0.32192498
15	0xbeafc5a8	-0.34330487
16	0x3e859127	0.26087305
17	0x3e240c52	0.16020325
18	0xbe4d8be0	-0.2007289
19	0x3de5d2db	0.11221858
20	0xbf2401b6	-0.6406511
21	0xbe9ea881	-0.30987933
22	0x3eb733a0	0.35781574
23	0x3f1fdb34	0.6244385
24	0x3e676175	0.2259577
25	0xbef5b7b9	-0.47991732
26	0x3e8ae17c	0.27125156
27	0xbef37b62	-0.4755507
28	0xbee5ee2b	-0.4490827
29	0xbebd96ae	-0.37029022
30	0xbe1c3a5c	-0.15256637
31	0x3c319362	0.010838361
32	0x3e1fb327	0.15595685
33	0x3f1281b9	0.5722919
34	0xbbffa57c	-0.0078017097
35	0x3f0b0aab	0.54313153
36	0xbf0da502	-0.55329907
37	0xbeb0061d	-0.34379664
38	0x3e9ad843	0.3024312
39	0x3ecd0945	0.40046135

2.weight f4 [40, 40]
0	0x3b9865fa	0.0046508284
1	0x3de0109a	0.109406665
2	0xbd542a9b	-0.051798444
3	0x3e555b0f	0.20835517
4	0x3c3b63e4	0.01143739
5	0x3db05bec	0.08611283
6	0xbd600792	-0.05469472
7	0xbe6a50f8	-0.2288245
8	0x3d2b4e72	0.04182286
9	0x3e184b59	0.14872493
10	0x3dbf7937	0.09349292
11	0x3e19ecbd	0.15031715
12	0xbe37eba4	-0.17960984
13	0x3e1629b2	0.14664343
14	0xbd79cc37	-0.06098577
15	0xbe0a9856	-0.13534674
16	0x3dcd216d	0.10016141
17	0xbd7f7575	-0.062367875
18	0xbc66547e	-0.01405823
19	0xbd758d37	-0.059949126
20	0xbe2485c1	-0.16066648
21	0x3de01494	0.10941425
22	0x3dd3b1a6	0.10336618
23	0x3dd4e2c5	0.10394815
24	0xbd976d2b	-0.07393869
25	0xbdb1c87d	-0.08680818
26	0x3bd2241e	0.006412997
27	0xbda48808	-0.080337584
28	0xbe0f1df4	-0.1397627
29	0xbdb14af2	-0.08656873
30	0x3dcb48a3	0.09925964
31	0xbdf91657	-0.12162464
32	0xbd1a8dab	-0.03773276
33	0x3c241aa2	0.010016115
34	0x3e44b1e4	0.19208485
35	0x3e53bf93	0.20678549
36	0xbe30bdef	-0.17259954
37	0xbec21269	-0.3790467
38	0xbe0db1e4	-0.13837391
39	0x3e974f15	0.29552522
40	0xbdfab610	-0.12241757
41	0x3dd3dced	0.103448726
42	0xbde252f1	-0.11050976
43	0xbdfe6057	-0.12420719
44	0x3c1fb2ca	0.0097472165
45	0xbde47249	-0.11154611
46	0x3dc38f70	0.09548843
47	0x3df02ee2	0.11727692
48	0xbdbf44ad	-0.09339271
49	0x3e3f9adc	0.18711418
50	0xbd896b6e	-0.06709944
51	0x3d3a03ac	0.045413658
52	0xbe188c33	-0.14897232
53	0x3b067244	0.0020514885
54	0xbd453332	-0.048144527
55	0xbac82366	-0.0015269339
56	0x3d2081df	0.039186355
57	0xbe467300	-0.19379807
58	0xbd14043b	-0.036136847
59	0x3df57867	0.119858555
60	0x3da69f16	0.08135812
61	0x3d3da4cb	0.046299737
62	0x3d4a45b3	0.049382877
63	0x3decb8b7	0.11558669
64	0x3d15aa41	0.03653932
65	0xbdc919bd	-0.09819362
66	0xbc339748	-0.010961361
67	0xbe46e722	-0.19424108
68	0xbd05cb63	-0.032664668
69	0x3d115dc6	0.03548982
70	0xbe1a30ca	-0.15057674
71	0x3d2a59b6	0.04158946
72	0x3dce537f	0.10074519
73	0xbdf80be7	-0.12111645
74	0xbd39bb2a	-0.04534451
75	0x3dd394a9	0.10331089
76	0xbcd2cb89	-0.025731819
77	0xbe959123	-0.29212293
78	0xbcf4869e	-0.029849347
79	0x3e78febf	0.24315928
80	0xbc9d3a01	-0.019192697
81	0x3d00df46	0.03146293
82	0xbde0ef35	-0.10983125
83	0x3bc3c926	0.0059749065
84	0xbe0749f4	-0.13211805
85	0x3d76c4f4	0.060246423
86	0x3b71e295	0.0036908735
87	0xbc260d52	-0.010135012
88	0x3d5c47b1	0.053779308
89	0x3e7bc7d6	0.2458795
90	0x3c94bd60	0.018156707
91	0xbe1da21b	-0.1539387
92	0x3e5c81b9	0.2153386
93	0xbc8ccd0e	-0.017187621
94	0x3e13f46f	0.14448713
95	0x3e094772	0.1340616
96	0x3da0feef	0.07861125
97	0x3e45e02b	0.19323795
98	0xbdcbc435	-0.09949533
99	0xbdab3a43	-0.08360722
100	0xbe4afaa2	-0.19822171
101	0x3cd806b8	0.026370391
102	0x3dca4bbe	0.09877728
103	0xbd0bc897	-0.034126844
104	0xbcf3e018	-0.029769942
105	0xbe5f1c9f	-0.21788262
106	0x3c72596f	0.01479183
107	0x3db1e58f	0.08686363
108	0x3e20231d	0.15638395
109	0xbe48afbb	-0.19598286
110	0xbd3dedf8	-0.046369523
111	0xbe207001	-0.15667726
112	0x3dd53b62	0.10411717
113	0xbe640bef	-0.22270177
114	0xbdaadcb5	-0.08342878
115	0x3cb9e0b6	0.022690158
116	0x3e419137	0.18903051
117	0x3dad7787	0.08470064
118	0x3d056232	0.03256435
119	0x3e3cebbe	0.18449304
120	0xbcaa9038	-0.020820722
121	0xbd01f422	-0.031726964
122	0x3d395e0f	0.045255717
123	0xbdea795b	-0.11448928
124	0xbc76434d	-0.015030694
125	0x3db4f575	0.0883588
126	0xbdebc0e1	-0.11511398
127	0x3e054f64	0.13018566
128	0x3df48250	0.11938918
129	0x3dbb45e9	0.09144194
130	0xbc3a8de8	-0.011386372
131	0xbd942c61	-0.07235027
132	0xbd6ac134	-0.05731316
133	0xbdcb9243	-0.099400066
134	0xbe14e90f	-0.1454203
135	0x3c86e307	0.016465677
136	0x3d25b75f	0.04045808
137	0xbdfaf56d	-0.122538425
138	0x3e41f5f6	0.18941483
139	0xbe08cef5	-0.13360198
140	0x3c160836	0.009157231
141	0xbdc6c7fc	-0.09706113
142	0x3de5d550	0.11222327
143	0xbd8d388a	-0.068955496
144	0x3db8286d	0.089920856
145	0x3d1d18f0	0.03835386
146	0x3da96bb3	0.08272495
147	0xbd92e58b	-0.07172688
148	0xbde89dad	-0.11358199
149	0xbcd5f891	-0.026119502
150	0xbdfc951b	-0.12333127
151	0xbdbda0ff	-0.09259223
152	0xbded78f5	-0.11595336
153	0x3d161819	0.036644075
154	0xbcb97756	-0.022639912
155	0xbe0edd10	-0.13951516
156	0x3e3b4533	0.18288116
157	0x3e22d7cd	0.15902634
158	0xbdc967be	-0.098342404
159	0xbc8a3ece	-0.01687565
160	0x3d404931	0.0469448
161	0xbe0965ea	-0.13417783
162	0x3dba9e91	0.091122754
163	0x3de6f416	0.112770244
164	0xbdf0d688	-0.117596686
165	0xbce917c7	-0.02845372
166	0xbdaf9052	-0.08572449
167	0xbe5488c8	-0.20755303
168	0x3da390cb	0.079866014
169	0x3e015fb2	0.12634161
170	0xbdcf9989	-0.101367064
171	0x3d4c353f	0.049855467
172	0xbd65502f	-0.055984672
173	0x3c891c96	0.016737264
174	0x3d932411	0.071846135
175	0xbe37116d	-0.17877741
176	0xbde1bb6d	-0.11022077
177	0x3cc18945	0.023625026
178	0xbe06014f	-0.13086437
179	0xbd90ed9b	-0.0707657
180	0xbdaf26a8	-0.08552295
181	0x3db33d9c	0.087519854
182	0xbd017181	-0.031602386
183	0x3dd807b4	0.10548344
184	0x3d50b0cc	0.050949857
185	0xbd8eaf2b	-0.069670044
186	0xbd86a474	-0.06574336
187	0xbd36f7d8	-0.044669956
188	0xbe9449ab	-0.28962454
189	0xbda77053	-0.08175721
190	0x3da5aeed	0.08090005
191	0x3db84e2f	0.08999287
192	0xbe21a40b	-0.15785234
193	0x3d0c7748	0.034293443
194	0x3e611192	0.21979359
195	0x3e7a1f76	0.24426064
196	0x3db4f61d	0.08836005
197	0xbdecae11	-0.11556638
198	0x3d9a2fdb	0.07528659
199	0x3d64ab1a	0.055827238
200	0x3cbf5002	0.02335358
201	0x3dbc4c21	0.09194208
202	0xbe0e5723	-0.13900428
203	0xbe3eb8ff	-0.18625258
204	0x3d898d86	0.067164466
205	0x3dcd5b82	0.10027219
206	0x3da9ccf1	0.082910426
207	0x3d92cb37	0.071676664
208	0x3dde2295	0.1084644
209	0x3d828e33	0.063747786
210	0xbb3c0c60	-0.00286939
211	0xbcaac38a	-0.020845193
212	0xbd20d3d8	-0.03926453
213	0x3e2e62ce	0.17029878
214	0x3e3c0b7f	0.1836376
215	0xbd48b3d1	-0.04899961
216	0x3deeb606	0.11655812
217	0xbcf5e475	-0.030016163
218	0x3e0cd1c7	0.13751899
219	0xbe0ddadb	-0.13853018
220	0xbcf71660	-0.030162036
221	0x3bf3fc06	0.007445815
222	0x3dbeb488	0.09311777
223	0x3da18463	0.07886579
224	0x3cd3880e	0.025821712
225	0xbe4edfbd	-0.20202537
226	0xbd36ba1b	-0.044611078
227	0x3e1dedc2	0.15422729
228	0x3d20c538	0.039250582
229	0x3d381d27	0.044949677
230	0xbded5b67	-0.11589699
231	0x3db2fa4f	0.08739149
232	0xbd1c0f04	-0.038100258
233	0xbcf87260	-0.030327976
234	0x3e494d44	0.19658381
235	0x3e4185fd	0.18898769
236	0xbdf885af	-0.12134873
237	0xbe1d7f96	-0.15380701
238	0x3e208ef6	0.15679535
239	0x3d10f26a	0.035387434
240	0x3deb7107	0.11496168
241	0x3d5b6a1d	0.053567994
242	0x3bd20cdd	0.006410225
243	0xbdb5af58	-0.08871335
244	0x3d12ea17	0.035867777
245	0x3e2d0cef	0.16899465
246	0x3dd46c0e	0.10372172
247	0xbd4e6cbf	-0.050396677
248	0xbd8fa96c	-0.070147365
249	0x3daafe3d	0.08349273
250	0xbe1a8846	-0.15091047
251	0x3ce3c2c9	0.027802842
252	0x3b8db0f6	0.004324074
253	0x3e225c61	0.15855552
254	0xbcd316b7	-0.025767667
255	0x3ddfc40c	0.10926065

2.bias f4 [40]
0	0x3e46b1bf	0.19403742
1	0x3dd2ab43	0.10286572
2	0xbd13509c	-0.035965547
3	0xbdd6f373	-0.10495653
4	0x3e54a81f	0.20767258
5	0xbdbed4b6	-0.09317915
6	0x3d9c89b3	0.076434515
7	0x3d8f70f0	0.07003963
8	0xbe2d62a4	-0.1693216
9	0x3e2cb760	0.16866827
10	0x3d15ebbc	0.036601767
11	0xbcf70d8e	-0.03015783
12	0xbe07d2a9	-0.13263954
13	0x3ba96e3a	0.0051706107
14	0xbd8fba15	-0.07017914
15	0xbd417a51	-0.04723579
16	0x3d33cc08	0.04389575
17	0xbddfd8a9	-0.109299965
18	0x3ddcafb4	0.107757
19	0xbe1c92c3	-0.1529036
20	0xbc6b99a6	-0.014379894
21	0x3caed2f6	0.021340828
22	0xbe2365e0	-0.15956831
23	0xbbb97354	-0.0056595
24	0xbe1d169a	-0.15340653
25	0xbde131b4	-0.10995808
26	0x3e0e14a4	0.13875061
27	0xbdcad17f	-0.099032395
28	0xbd4409c3	-0.047860872
29	0xbe1dd49c	-0.15413135
30	0x3e27bf33	0.1638153
31	0xbdf2c210	-0.11853421
32	0x3e056fbd	0.13030906
33	0xbd8fa4a2	-0.07013823
34	0x3cc1a827	0.023639752
35	0xbdc3ba11	-0.09556974
36	0x3e158c26	0.14604244
37	0xbcab1078	-0.020881876
38	0xbc8de5ad	-0.017321432
39	0xbd72a64c	-0.059240624

4.weight f4 [40, 40]
0	0x3d3f1c8b	0.04665808
1	0x3e0306cd	0.12795563
2	0xbde8ac0f	-0.113609426
3	0xbdcfb851	-0.101425774
4	0x3c93bd96	0.018034738
5	0xbdc94ef1	-0.0982951
6	0x3df47bfa	0.11937709
7	0xbdd0849c	-0.10181543
8	0x3d2495cd	0.040181924
9	0x3dff3b7e	0.12462519
10	0xbd5c107b	-0.053726654
11	0xbe2d0172	-0.16895083
12	0xbe151463	-0.14558558
13	0xbdee4e29	-0.116360016
14	0xbd145599	-0.036214445
15	0xbdb74803	-0.08949282
16	0x3d999eef	0.07501017
17	0x3dd06e8a	0.10177334
18	0xbdeb115b	-0.1147792
19	0x3e1f50d8	0.15558183
20	0xbb727fd0	-0.0037002452
21	0x3c0b93fe	0.008519171
22	0xbde286f3	-0.11060896
23	0x3dfb199b	0.12260743
24	0x3e0fb695	0.14034493
25	0xbe105dc5	-0.1409827
26	0xbd108ef5	-0.035292584
27	0xbe4e07dd	-0.20120187
28	0xbc0c7ce7	-0.008574701
29	0xbde2a4fc	-0.110666245
30	0xbd8a8ad1	-0.067647584
31	0xbcf52f4f	-0.029929785
32	0x3d7fcfb2	0.062453933
33	0x3e6529e1	0.22379257
34	0x3e302909	0.17203154
35	0x3d788b55	0.060679752
36	0xbc71d47b	-0.014760132
37	0x3d45cdbc	0.048291907
38	0x3e688947	0.22708617
39	0x3e00607a	0.12536803
40	0xbe7c98fe	-0.24667737
41	0x3e1c1199	0.15241088
42	0x39d44bd4	0.00040492287
43	0xbd7d0719	-0.061774347
44	0xbe84c6e2	-0.25932986
45	0x3e03e959	0.12881984
46	0x3dac0997	0.084002666
47	0x3e094dee	0.13408634
48	0xbd90aba1	-0.070639856
49	0x3d90f516	0.070779964
50	0xbdf4d0a8	-0.119538605
51	0x3e9fc5a1	0.31205466
52	0x3d5707f9	0.052497838
53	0xbe3bb8c2	-0.18332198
54	0xbe1fbf7b	-0.15600388
55	0x3d20622d	0.039156128
56	0x3c361cb9	0.011115246
57	0x3e248816	0.16067538
58	0x3dd4e655	0.10395495
59	0xbe1087fe	-0.14114377
60	0x3ddaf6dd	0.10691617
61	0xbd337478	-0.043812245
62	0xbc874091	-0.01651028
63	0xbd0f95ad	-0.03505485
64	0x3c5fd99d	0.013662723
65	0xbe4302d4	-0.19044048
66	0xbd902b41	-0.070395
67	0xbdb008a0	-0.08595395
68	0xbe6ce78d	-0.23135205
69	0xbd6867f1	-0.05673975
70	0xbc9e3f97	-0.019317431
71	0x3da5fca1	0.08104826
72	0x3dd74610	0.1051141
73	0xbe7d28a5	-0.24722536
74	0xbdb02322	-0.08600451
75	0xbd247862	-0.04015387
76	0xbde7e69e	-0.113232836
77	0x3e03e4c3	0.12880234
78	0x3da52033	0.08062782
79	0xbe0f2c1f	-0.13981675
80	0xbd97a07c	-0.07403657
81	0xbdd5312a	-0.10409768
82	0xbe016c25	-0.1263891
83	0x3d3d0709	0.046149287
84	0xbde404e4	-0.11133745
85	0xbdeeb10b	-0.11654862
86	0xbe3a4519	-0.18190421
87	0x3e0f3327	0.13984357
88	0xbd84907f	-0.06472873
89	0x3d951a3e	0.07280396
90	0x3dd37b64	0.10326269
91	0xbe88d21e	-0.26722807
92	0x3d878510	0.066171765
93	0x3e57a569	0.21059193
94	0xbba9108c	-0.0051594432
95	0xbdec4362	-0.1153629
96	0xbcc38c92	-0.02387074
97	0xbe063d2f	-0.13109277
98	0xbdd9b449	-0.1063009
99	0xbc88693c	-0.016651742
100	0x3d86ebba	0.0658793
101	0xbc8fe925	-0.017567227
102	0xbd812c85	-0.063073196
103	0x3e141158	0.14459741
104	0xbd6e5a5b	-0.05819164
105	0x3d9c4157	0.0762965
106	0xbd8a7951	-0.067614205
107	0x3d5126fd	0.051062573
108	0xbda3ffd5	-0.080077805
109	0x3e116f15	0.1420253
110	0x3cf3216a	0.029679019
111	0xbe3732f3	-0.1789053
112	0x3df2212c	0.11822733
113	0x3dff3704	0.12461665
114	0xbda24daa	-0.079249695
115	0x3d7e6861	0.062111262
116	0xbdfa7c41	-0.12230731
117	0xbdab9847	-0.08378654
118	0x3dcdd092	0.10049547
119	0xbcd60983	-0.026127582
120	0xbdd67098	-0.10470694
121	0x3dd3ed02	0.1034794
122	0x3d1ce9b5	0.038308818
123	0xbd989ae1	-0.07451416
124	0x3dc65f42	0.09686138
125	0x3db636b0	0.088971496
126	0x3e268782	0.1626263
127	0xbd3d0ab4	-0.046152785
128	0xbceaf9a8	-0.028683499
129	0x3bf3697e	0.007428347
130	0x3c2f9185	0.010715847
131	0x3d829b39	0.063772626
132	0xbd97358f	-0.07383262
133	0x3db1fb4c	0.08690509
134	0x3e21d363	0.15803294
135	0x3d21485b	0.039375644
136	0x3e0b9d1d	0.13634153
137	0xbdd0b7b6	-0.1019129
138	0x3d37e06c	0.04489176
139	0xbe6c89d6	-0.23099455
140	0xbcd5fc79	-0.026121365
141	0xbd020cf0	-0.03175062
142	0x3e18521e	0.14875075
143	0xbd23dd8f	-0.040006217
144	0x3e0613e4	0.13093525
145	0x3e0075a2	0.12544873
146	0x3ce8a8e6	0.02840085
147	0x3dd780e3	0.1052263
148	0x3e107694	0.14107734
149	0xbdaea49e	-0.08527492
150	0xbde3169c	-0.11088297
151	0x3c88f0f7	0.016716463
152	0x3d8102e9	0.06299383
153	0x3c67a69b	0.014138843
154	0x3e012b26	0.12614116
155	0xbbdc917f	-0.0067312117
156	0x3bef1013	0.0072956174
157	0xbe07780b	-0.13229387
158	0x3dd8f31b	0.10593244
159	0xbdd215f8	-0.102580965
160	0xbdbb315f	-0.09140276
161	0xbdfbeb6d	-0.12300763
162	0x3e2a44fe	0.16627881
163	0xbdea88ab	-0.114518486
164	0xbe55a02a	-0.20861879
165	0xbd51700d	-0.05113225
166	0xbd46ac36	-0.048504077
167	0xbd224df7	-0.039625134
168	0xbc055130	-0.008137032
169	0xbccd1162	-0.025032703
170	0x3dbf173c	0.093306035
171	0x3e3a45b5	0.18190654
172	0x3d8b9e20	0.06817269
173	0xbd10a1f9	-0.03531072
174	0x3d5dc081	0.054138664
175	0x3e08bd23	0.133534
176	0xbd8ebb89	-0.06969363
177	0x3d07d8f6	0.033165894
178	0xbc960b9c	-0.018316083
179	0x3e27ef57	0.16399895
180	0xbd125d80	-0.0357337
181	0x3e045e8b	0.1292669
182	0x3e5c6e84	0.21526533
183	0x3d085674	0.033285573
184	0x3db932c9	0.090428896
185	0x3ded5d23	0.1159003
186	0x3d73b573	0.059499215
187	0x3d6fc0a2	0.05853332
188	0x3de7f8f5	0.11326782
189	0x3dcfd01d	0.10147116
190	0xbbd699e9	-0.0065491092
191	0x3d24ed5f	0.040265437
192	0xbdeb9a68	-0.1150406
193	0xbdb07d78	-0.08617681
194	0x3db675d3	0.08909192
195	0xbdc8bf95	-0.098021664
196	0xbe2232fd	-0.15839763
197	0x3c3b75a9	0.011441627
198	0xba8b61d9	-0.0010634019
199	0x3dab7a6d	0.0837296
200	0x3cfa29dd	0.03053754
201	0xbde5f717	-0.11228769
202	0x3dda138f	0.10648262
203	0xbe037ec6	-0.12841329
204	0xbe367af7	-0.17820345
205	0xbd7371b9	-0.059434626
206	0xbdce6e11	-0.10079587
207	0x3d3ed569	0.046590243
208	0x3d8f29bf	0.06990384
209	0xbe3ac468	-0.18238986
210	0xbdb9d8ff	-0.09074592
211	0x3e9dff14	0.30858672
212	0x3d35c3a1	0.04437602
213	0xbe02c1de	-0.12769267
214	0x3dc09c14	0.094047695
215	0x3e2a7078	0.16644466
216	0xbe35135b	-0.17683165
217	0x3d0e2848	0.034706384
218	0x3df1ec77	0.1181268
219	0xbdd6167a	-0.10453506
220	0x3e13e609	0.1444322
221	0x3e549b8d	0.20762463
222	0x3dc1cbff	0.09462737
223	0xbe846e2c	-0.25865304
224	0xbd962085	-0.07330421
225	0xbe4f559f	-0.20247506
226	0xbd600998	-0.05469665
227	0x3d9a7840	0.07542467
228	0xbe63845d	-0.22218461
229	0x3d97ebf0	0.074180484
230	0xbe023c5b	-0.12718336
231	0x3e49a3b9	0.19691361
232	0x3df033b8	0.117286146
233	0x3bbbf6eb	0.005736222
234	0x3cfa4be0	0.030553758
235	0x3debfe82	0.11523153
236	0xbd108123	-0.035279404
237	0x3d110fc8	0.03541544
238	0x3d24e266	0.040254973
239	0xbdf2dc92	-0.11858477
240	0xbe08a8c4	-0.13345629
241	0x3d04a7e3	0.03238667
242	0xbd976047	-0.0739141
243	0xbcc1b7cc	-0.023647211
244	0xbdb8b799	-0.090193935
245	0xbd4a0906	-0.04932501
246	0xbdfc5721	-0.12321306
247	0x3e2c103f	0.16803072
248	0x3dffba2c	0.12486681
249	0x3dae2710	0.08503544
250	0x3b195e1d	0.0023402043
251	0xbd7e45ad	-0.062078167
252	0x3c11ea03	0.00890589
253	0x3e22781d	0.15866132
254	0x3dd7f1ca	0.105441645
255	0xbd1414f9	-0.036152814

4.bias f4 [40]
0	0x3e20b8ec	0.15695542
1	0x3dd58bff	0.10427093
2	0x3d72fd6a	0.059323706
3	0x3d98f514	0.0746862
4	0x3c906424	0.017625876
5	0xbe2cd407	-0.16877757
6	0xbd929b8d	-0.07158575
7	0x3c1583df	0.009125679
8	0xbdfabd4c	-0.12243137
9	0xbce24b07	-0.027623666
10	0x3d682a7d	0.056681145
11	0x3d80df07	0.06292539
12	0x3deddc92	0.11614336
13	0xbd7702de	-0.06030547
14	0x3e0d2b21	0.13785984
15	0xbd810383	-0.06299498
16	0x3dac7bba	0.084220365
17	0x3e26afff	0.16278075
18	0xbdae3558	-0.08506268
19	0xbe43c9c7	-0.1911994
20	0x3e212637	0.15737234
21	0x3d9d1eb8	0.07671875
22	0xbd896fd5	-0.067107834
23	0x3d95d106	0.07315259
24	0x3d65ace3	0.05607308
25	0xbd315009	-0.043289218
26	0x3d261b3a	0.04055331
27	0x3cd3c9d2	0.025853071
28	0xbdddd9c2	-0.1083255
29	0xbd84dc90	-0.064873815
30	0xbe0631b3	-0.13104896
31	0x3cc860a6	0.024460148
32	0xbdee30b9	-0.11630387
33	0xbda767f7	-0.081741266
34	0xbdc8b537	-0.09800189
35	0xbc8591f9	-0.016304957
36	0xbe05caad	-0.13065596
37	0xbcd1ceb5	-0.02561126
38	0xbe0d54c0	-0.13801861
39	0x3e2079ec	0.1567151

6.weight f4 [40, 40]
0	0x3d7fc452	0.062443085
1	0x3d92373f	0.071394436
2	0xbd922790	-0.07136452
3	0x3d2f4448	0.042789727
4	0xbd88658a	-0.06659992
5	0xbd5c6005	-0.05380251
6	0xbacf5f46	-0.001582124
7	0xbe32c611	-0.17458369
8	0x3e258c3d	0.16166778
9	0x3de0a78d	0.10969458
10	0x3cf6a299	0.03010683
11	0x3cc83c6e	0.024442878
12	0x3d72fd96	0.05932387
13	0xbdc4e345	-0.09613661
14	0x3c63a723	0.013894829
15	0xbd3e31ab	-0.046434086
16	0x3cacb13c	0.021080606
17	0xbe14cb93	-0.14530782
18	0x3d7f766d	0.0623688
19	0xbbd9aa14	-0.0066425893
20	0xbde5ef27	-0.11227255
21	0x3e82d786	0.25555056
22	0xbd8a67d2	-0.067580834
23	0xbd9081db	-0.07056018
24	0xbe7b3247	-0.24530898
25	0xbdef3bec	-0.11681351
26	0x3e117a89	0.142069
27	0x3dad090e	0.08448993
28	0x3bfab535	0.007650996
29	0xbc50c995	-0.012743373
30	0x3e37fa28	0.17966521
31	0x3e6d3ef2	0.23168543
32	0xbb8c3687	-0.004278961
33	0xbe317903	-0.17331319
34	0x3bb475fb	0.0055072284
35	0x3d1a2907	0.037636783
36	0x3cc7e04a	0.024398942
37	0x3e03dd96	0.12877497
38	0x3e4e6384	0.2015515
39	0xbccc0214	-0.024903335
40	0xbde75f05	-0.112974204
41	0x3d3e32e1	0.04643524
42	0x3cac8a75	0.021062115
43	0xbd12c745	-0.03583457
44	0x3c412c78	0.011790387
45	0x3deabde6	0.114620015
46	0xbdd0ef48	-0.10201889
47	0xbd032e3e	-0.03202652
48	0xbdfa5c1b	-0.12224599
49	0x3bf0497c	0.007332979
50	0x3dbc4c64	0.09194258
51	0x3e1b34f4	0.15156919
52	0x3d549000	0.05189514
53	0x3ddc8711	0.107679494
54	0xbe38bf98	-0.18041837
55	0x3d218a86	0.039438747
56	0xbb2e8755	-0.0026630957
57	0xbdc2d17a	-0.09512611
58	0x3df8ca20	0.12147927
59	0x3d6eaa05	0.058267612
60	0xbdd7257f	-0.10505199
61	0xbe34079b	-0.17581026
62	0xbdf55de4	-0.11980799
63	0x3d5b15c8	0.05348757
64	0x3d9aa6e1	0.07551361
65	0x3ca85fba	0.020553458
66	0x3d9281ca	0.071536615
67	0xbe257664	-0.16158444
68	0x3d2961a3	0.04135288
69	0xbdb50ee9	-0.088407345
70	0xbe2983cf	-0.16554187
71	0xbcca3d78	-0.024687514
72	0xbd80ac29	-0.06282837
73	0xbdf69915	-0.12040917
74	0xbd809208	-0.06277853
75	0x3d062ca5	0.03275742
76	0x3e4b05cd	0.19826432
77	0x3a28deea	0.0006441908
78	0x3d861288	0.06546503
79	0x3c92bd1c	0.01791244
80	0xbe7422d2	-0.23841408
81	0x3e5fe385	0.21864136
82	0xbda883e4	-0.08228281
83	0xbdd30712	-0.10304083
84	0x3d9501e0	0.07275748
85	0x3e1dd10b	0.15411775
86	0xbc543d65	-0.012954091
87	0xbdb79fcb	-0.08966025
88	0x3e0458d6	0.12924513
89	0xbd8300ff	-0.06396674
90	0xbd22540e	-0.039630942
91	0x3d18e5f7	0.037328687
92	0xbd582e5e	-0.052778594
93	0xbe17b6b3	-0.14815788
94	0xbd7b5845	-0.061363477
95	0xbe030fba	-0.12798968
96	0x3ca71513	0.020395791
97	0xbcca2004	-0.02467347
98	0x3de8d7f3	0.11369314
99	0x3e8b543d	0.27212706
100	0xbda63af6	-0.08116715
101	0x3de0c42d	0.109749176
102	0x3dfe45c8	0.124156535
103	0xbe8678d0	-0.26264048
104	0xbe8f7318	-0.28017497
105	0xbdbcf626	-0.092266366
106	0xbd72bdc0	-0.05926299
107	0xbdd9f68e	-0.1064273
108	0xbd1371cf	-0.03599721
109	0xbcc75957	-0.024334593
110	0xbdf9a65b	-0.12189933
111	0x3d1d1a2e	0.038355045
112	0xbdd8fb28	-0.10594779
113	0xbdf3d8e9	-0.11906607
114	0xbd44a2d1	-0.048006836
115	0xbe974483	-0.29544458
116	0xbde086ec	-0.10963234
117	0x3dfbcbd0	0.122947335
118	0x3d8f0082	0.06982519
119	0xbe4c6645	-0.19960888
120	0xbd574039	-0.052551482
121	0x3e48966d	0.19588633
122	0x3c849bdb	0.016187599
123	0x3abe3d0f	0.0014514046
124	0x3dc444e7	0.095834546
125	0x3cf2cad4	0.029637732
126	0xbc8e3dc2	-0.017363433
127	0x3e4488d9	0.19192828
128	0xbca1a254	-0.019730724
129	0xbd6981fc	-0.05700873
130	0x3e01228d	0.12610836
131	0x3da8e7a4	0.08247307
132	0xbd4881d2	-0.04895193
133	0x3deaa86a	0.11457904
134	0xbdbd5c52	-0.09246124
135	0xbdbdff9a	-0.09277268
136	0x3e23cecc	0.15996855
137	0xbe0f07c6	-0.13967809
138	0xbd971777	-0.073775224
139	0xbda8234f	-0.082098596
140	0x3d4e1e69	0.05032197
141	0xbd85d998	-0.06535643
142	0x3d57c7f3	0.05268092
143	0x3e09c0bc	0.13452429
144	0xbe02e037	-0.12780844
145	0xbe50bcaf	-0.20384477
146	0xbe574caf	-0.21025346
147	0x3d900bfa	0.07033534
148	0x3b7e4490	0.003879819
149	0xbdf06f33	-0.117399596
150	0xbe5924bf	-0.21205424
151	0xbca69946	-0.020336758
152	0xbb8efd1f	-0.0043636705
153	0x3de5fb95	0.11229626
154	0x3d940537	0.07227557
155	0x3dd382da	0.10327692
156	0xbd7ccac3	-0.061716806
157	0x3d30c067	0.04315224
158	0xbe1ecf85	-0.1550885
159	0x3ca4461c	0.020052962
160	0xbd9e884b	-0.077408396
161	0x3dd04487	0.101693206
162	0xbdaee339	-0.08539433
163	0xbd73f505	-0.05955984
164	0x3bef45d0	0.0073020235
165	0x3da201db	0.0791051
166	0x3bc5eee0	0.006040439
167	0x3e0950dc	0.13409752
168	0xbde9c677	-0.11414807
169	0x3cbb3a36	0.022854906
170	0x3d47b8aa	0.048760094
171	0x3db8fbb8	0.090323865
172	0xbe62e7de	-0.22158763
173	0xbde37d12	-0.1110784
174	0xbc4437be	-0.011976181
175	0x3bf4a946	0.007466468
176	0x3e110853	0.14163332
177	0x3ded2067	0.11578446
178	0xbcee690f	-0.02910283
179	0x3d2943d8	0.041324466
180	0x3dcc3bf9	0.099723764
181	0xbcd4b811	-0.025966676
182	0xbddcedff	-0.10787582
183	0xbc917e0c	-0.0177603
184	0xbdb6b0c1	-0.08920432
185	0x3da5bc84	0.08092597
186	0xbd6bca95	-0.057566244
187	0x374a0a6c	1.2042565e-05
188	0x3dafc2df	0.085820906
189	0x3cc8dfeb	0.024520835
190	0xbd6e17c7	-0.058128145
191	0x3e173aa4	0.14768463
192	0x3d248a16	0.04017075
193	0xbd96eb95	-0.073691525
194	0xbdf8450c	-0.12122545
195	0xbd8ef2ff	-0.069799416
196	0x3dd97981	0.10618878
197	0x3db82187	0.0899077
198	0x3c1cbd58	0.009566627
199	0xbc4f9965	-0.012670849
200	0x3d464421	0.048404817
201	0xbd01c700	-0.03168392
202	0xbd48f035	-0.049057204
203	0x3c10e563	0.008843753
204	0xbd9aa5e3	-0.07551172
205	0x3b9a0d17	0.0047012675
206	0xbe228991	-0.1587279
207	0x39e9f1e2	0.0004462144
208	0xbe1f2a59	-0.15543498
209	0xbe0c7dad	-0.13719817
210	0xbdcde0cc	-0.10052642
211	0x3b62dd36	0.0034616715
212	0x3df2c53a	0.11854024
213	0x3d2f9b27	0.042872574
214	0x3d92058b	0.071299635
215	0xbdb8a5b8	-0.09015983
216	0xbe228940	-0.15872669
217	0xbbbf77fe	-0.0058431616
218	0xbdf2690a	-0.11836441
219	0xbdf01d2f	-0.11724316
220	0x3d61bae0	0.05510986
221	0xbd9d8070	-0.07690513
222	0xbe12a3da	-0.14320317
223	0x3e6988fc	0.22806162
224	0x3e702d95	0.23454888
225	0xbd336746	-0.04379966
226	0xbde14502	-0.1099949
227	0x3d392fd7	0.04521164
228	0x3c4c8d30	0.012484834
229	0xbdc78c8e	-0.097436056
230	0xbdd83379	-0.10556693
231	0xbd56fbaa	-0.0524861
232	0xbd52a8a7	-0.05143037
233	0xbc2fed4d	-0.010737729
234	0x3d80a0da	0.0628068
235	0x3d64de4f	0.055876072
236	0x3d92890c	0.07155046
237	0x3dfd0f44	0.12356427
238	0xbd8f32ed	-0.06992135
239	0x3e172056	0.14758429
240	0xbc7f178b	-0.015569578
241	0xbd630f3b	-0.055434447
242	0x3d89ca8c	0.06728086
243	0x3dc15513	0.09440055
244	0x3cd0d05d	0.02548998
245	0x3e1e9077	0.15484796
246	0xbd551fc6	-0.052032255
247	0xbd9df935	-0.07713548
248	0x3e15489b	0.14578478
249	0x3d6b0021	0.05737317
250	0xbdbc5130	-0.09195173
251	0xbe270297	-0.16309582
252	0x3bc3e399	0.0059780595
253	0x3c220f73	0.009891379
254	0xbe108a24	-0.14115196
255	0x3ce32f6f	0.027732579

6.bias f4 [40]
0	0xbe4e96b8	-0.20174682
1	0x3ca9529c	0.020669274
2	0x3d4e8a7e	0.050425045
3	0xbd302f0f	-0.04301363
4	0xbd65b8b1	-0.05608434
5	0xbdaa3479	-0.083107896
6	0xbe44587f	-0.19174384
7	0x3d0152bd	0.031573046
8	0x3d904c02	0.07045747
9	0x3cb58b3b	0.022161117
10	0x3d78bf3e	0.060729258
11	0x3d550cfc	0.052014336
12	0xbdb02ca8	-0.086022675
13	0xbe30c10d	-0.17261143
14	0x3d672440	0.056431055
15	0xbe00b496	-0.12568888
16	0x3dd9fb56	0.10643642
17	0x3c54052b	0.012940685
18	0x3e2ff4bd	0.17183204
19	0xbd4b7460	-0.04967153
20	0xbd877cb7	-0.06615584
21	0xbe21db35	-0.15806277
22	0x3ddf52b6	0.10904448
23	0xbe18c998	-0.14920652
24	0x3dad5e54	0.08465257
25	0xbdd1aeb9	-0.10238404
26	0xbe02c7ce	-0.12771532
27	0x3c815cbf	0.015791295
28	0x3d201871	0.03908581
29	0x3d4a2366	0.049350165
30	0xbe01732e	-0.12641594
31	0xbdc09c18	-0.094047725
32	0x3c99c09b	0.0187686
33	0x3dae1bfd	0.08501432
34	0xbe087031	-0.13324048
35	0x3da79564	0.08182791
36	0x3c17db7a	0.009268636
37	0xbd96726f	-0.07346045
38	0x3e003ccc	0.12523192
39	0xbe05c528	-0.1306349

8.weight f4 [40, 40]
0	0xbbe88826	-0.0070963083
1	0xbd9275c0	-0.07151365
2	0xbe817eff	-0.25292203
3	0xbd9b983a	-0.07597394
4	0xbe3c2436	-0.18373188
5	0x3dede582	0.11616041
6	0xbdef289a	-0.11677666
7	0x3dd21191	0.10257257
8	0x3dbac4ca	0.09119566
9	0xbdb940eb	-0.09045585
10	0xbd3ac374	-0.045596555
11	0xbdd813e3	-0.10550668
12	0xbd486c62	-0.048931487
13	0x3e11b9e5	0.1423107
14	0xbd4d02aa	-0.05005137
15	0x3d83dc31	0.064384826
16	0xbe63c15d	-0.22241731
17	0x3ca9afc7	0.0207137
18	0x3da4a6e2	0.08039643
19	0x3de27815	0.1105806
20	0xbe5780f8	-0.21045291
21	0xbe5c7552	-0.21529129
22	0x3e76cf9d	0.24102636
23	0xbc0a3ad8	-0.008436881
24	0x3e5f38ab	0.21798961
25	0xbe207d99	-0.15672912
26	0x3d70c479	0.05878112
27	0xbe3d5e63	-0.18493037
28	0x3da57c22	0.08080317
29	0xbc936f14	-0.017997302
30	0xbd86bfd0	-0.06579554
31	0xbc5f5668	-0.013631441
32	0x3e34318a	0.17597023
33	0xbe7e1b6a	-0.24815145
34	0xbd621309	-0.055193935
35	0x3e41e160	0.1893363
36	0xbe312b97	-0.17301784
37	0x3d147ed8	0.03625378
38	0xbd027b35	-0.03185578
39	0x3d15c02a	0.036560215
40	0xbdbb9a1d	-0.09160254
41	0x3dbe59b6	0.09294455
42	0xbc995027	-0.018714977
43	0xbddcfbf2	-0.10790242
44	0x3cd9ca0b	0.0265856
45	0xbdba45f3	-0.09095373
46	0xbca08a15	-0.019597093
47	0xbde0c80b	-0.10975655
48	0x3d1a7053	0.037704777
49	0xbd26c0da	-0.04071126
50	0xbdc2249a	-0.094796374
51	0xbe07716b	-0.1322686
52	0xbd23ba10	-0.039972365
53	0x3df14629	0.1178096
54	0x3e0bc65d	0.13649888
55	0xbde00eb3	-0.10940304
56	0x3c427fce	0.011871291
57	0x3e0142a7	0.12623082
58	0x3dbd3dc0	0.092402935
59	0x3de3a460	0.111153364
60	0xbdc176c6	-0.09446482
61	0xbd7a219c	-0.06106721
62	0x3e151a78	0.14560878
63	0x3c80dab9	0.015729295
64	0xbda26b1e	-0.07930587
65	0xbdede39b	-0.11615678
66	0xbd8a66fb	-0.06757923
67	0xbe3e4c0e	-0.185837
68	0xbdb2115a	-0.08694716
69	0x3e3a8ddc	0.18218178
70	0xbb9c1867	-0.004763651
71	0x3de6c861	0.11268688
72	0xbe00bed5	-0.12572797
73	0x3d4cc03f	0.049988028
74	0x3d4937e1	0.049125556
75	0xbdcad9e5	-0.09904841
76	0xbd43ba54	-0.04778512
77	0x3d8987b7	0.06715339
78	0xbdb1f0b1	-0.08688486
79	0x3cd618c1	0.02613485
80	0x3e121894	0.14267188
81	0xbe0ccfc4	-0.13751131
82	0xbdd687d3	-0.10475125
83	0x3dfc9f18	0.12335032
84	0x3ca6f737	0.020381553
85	0xbe14c1c7	-0.14527045
86	0x3db4052b	0.08790048
87	0xbdb534fa	-0.08847995
88	0x3d6c1c61	0.05764425
89	0xbdc548a0	-0.09632993
90	0x3de3c229	0.111210175
91	0xbe11e0f2	-0.14245966
92	0xbdbee9d6	-0.093219444
93	0xbcb0a322	-0.021562163
94	0x3ceddfe7	0.029037429
95	0xbdb4f5c4	-0.088359386
96	0x3dad210b	0.08453568
97	0x3cba1be0	0.02271837
98	0xbe3b5bd6	-0.18296751
99	0x3def2f58	0.11678952
100	0x3dd33361	0.10312534
101	0xbdcc45f8	-0.09974283
102	0x3d06e157	0.032929745
103	0x3d104f8c	0.03523211
104	0xbbb5f3b5	-0.005552734
105	0x3e3d0986	0.18460664
106	0xbd045f64	-0.032317534
107	0xbd9e7673	-0.07737436
108	0x3da5056a	0.08057673
109	0x3e038bac	0.1284625
110	0x3e06e710	0.13174081
111	0xbe442082	-0.19153026
112	0xbc7ba812	-0.015359895
113	0xbdd8b9ac	-0.10582289
114	0x3d1115b5	0.035421092
115	0xbd52cadb	-0.05146299
116	0xbdf7f704	-0.12107661
117	0xbe0fcfee	-0.14044163
118	0xbe2427d7	-0.16030823
119	0xbdf9f853	-0.12205567
120	0x3d2c68ca	0.042092122
121	0x3df443ae	0.119269714
122	0x3d9cff40	0.076658726
123	0x3e48d282	0.19611552
124	0x3d9b963b	0.075970136
125	0xbdb4c987	-0.08827501
126	0x3d5f9110	0.0545817
127	0xba8bab35	-0.0010655882
128	0x3d8235b0	0.06357896
129	0x3d6666d1	0.056250397
130	0xbd82cc4c	-0.06386623
131	0x3e39c41f	0.1814122
132	0xbdfc1748	-0.12309128
133	0x3cea09fa	0.02856921
134	0xbe015bab	-0.12632625
135	0xbd6cbc19	-0.05779657
136	0x3db09b62	0.08623387
137	0xbe561dbd	-0.20909782
138	0xbd033320	-0.03203118
139	0xbde97a70	-0.11400306
140	0x3ccb5dd5	0.024825016
141	0x3df841d1	0.121219285
142	0xbe6a83ea	-0.22901884
143	0x3dfe6f32	0.124235526
144	0xbd02906b	-0.03187601
145	0xbbd1fd71	-0.0064083864
146	0xba265cbf	-0.00063462177
147	0xbd86a6f8	-0.065748155
148	0xbd1d328b	-0.03837828
149	0xbe404abf	-0.18778513
150	0x3e58e3c5	0.21180637
151	0xbd5aaf68	-0.053389937
152	0xbe8dc8cc	-0.27692258
153	0x3e1b8e41	0.15190984
154	0xbe2e8f07	-0.17046748
155	0xbe65cddd	-0.22441812
156	0xbd07a3e5	-0.033115286
157	0xbbe0e287	-0.0068629417
158	0x3dc5b2ed	0.09653268
159	0xbdbaabc6	-0.091147944
160	0xba27efc5	-0.0006406273
161	0xbca7a8ce	-0.020466235
162	0xbe05fcde	-0.13084742
163	0x3dbbb56c	0.09165463
164	0x3de34eba	0.11099
165	0xbc2a22c7	-0.010384268
166	0xbd16b09e	-0.03678953
167	0x3d92bc5c	0.07164833
168	0xbd6b61fa	-0.057466485
169	0x3b008e1f	0.001961596
170	0x3ddfe847	0.10932975
171	0xbd8d45af	-0.06898057
172	0x3dfa4dd4	0.12221876
173	0x3e211acc	0.15732878
174	0x3cf01d0b	0.029310724
175	0x3c39a562	0.011330934
176	0xbd692bbb	-0.05692647
177	0x3d1281f8	0.03576848
178	0xbcdfe922	-0.027332846
179	0xbe11f62b	-0.14254062
180	0xbe1b75b9	-0.15181626
181	0xbb97b914	-0.0046302173
182	0x3d6cf804	0.057853714
183	0x3d9f0b3b	0.07765814
184	0x3ded2124	0.11578587
185	0x3d9c689f	0.076371424
186	0x3de28f1c	0.11062452
187	0x3de506c0	0.11182928
188	0xbdefbe0f	-0.11706173
189	0x3e262a5b	0.16227095
190	0xbd642c19	-0.055706117
191	0xbddf048e	-0.108895406
192	0x3d2bce71	0.041944925
193	0xbe115437	-0.14192282
194	0x3d9baf2b	0.0760177
195	0x3cd2ac09	0.025716798
196	0x3d1a1240	0.03761506
197	0xbdeffa3e	-0.11717652
198	0x3d4278ad	0.047478367
199	0x3de49128	0.11160499
200	0xbdfe23d9	-0.12409181
201	0x3d797a38	0.060907573
202	0xbdb653bc	-0.0890269
203	0x3d44e12a	0.048066296
204	0xbdf14186	-0.11780076
205	0x3d89622f	0.0670818
206	0xbe1456b9	-0.14486207
207	0xbd8dfdef	-0.069331996
208	0x3e3fbcfd	0.18724437
209	0x39f349b4	0.00046403485
210	0x3d41a23c	0.04727386
211	0x3d419896	0.047264658
212	0x3d8393af	0.06424653
213	0xbde82ac1	-0.1133628
214	0x3dfebe1d	0.12438605
215	0xbe81fcca	-0.25388175
216	0x3cbc9876	0.023021918
217	0x3e96d258	0.29457355
218	0x3de1f37c	0.11032769
219	0x3df970a3	0.12179687
220	0x3df6f9da	0.12059374
221	0xbcacd1a8	-0.021096066
222	0x3c3e1741	0.011602224
223	0xbdfe1b31	-0.1240753
224	0xbde609cc	-0.11232337
225	0xbe72505d	-0.23663469
226	0xbc86aee5	-0.016440818
227	0xbdb67b7e	-0.08910273
228	0xbdeb35ce	-0.11484872
229	0x3c9883ea	0.018617589
230	0xbe1be8be	-0.15225503
231	0xbda5cd93	-0.08095851
232	0xbdbdd83b	-0.09269758
233	0x3d3cdfd3	0.046111893
234	0xbca5888e	-0.020206716
235	0xbddc0f4a	-0.10745104
236	0xbe0af1b0	-0.13568759
237	0x3e2bfd2b	0.16795795
238	0x3e917b96	0.284146
239	0x3d064184	0.032777324
240	0x3d8e197e	0.06938456
241	0x3bb4b714	0.0055149887
242	0x3e4a2955	0.1974233
243	0x3dc9108b	0.098176084
244	0xbd415f3f	-0.047209974
245	0x3db8178f	0.089888684
246	0xbd62b040	-0.055343866
247	0x3d75471a	0.05988226
248	0xbe5df46d	-0.21675272
249	0xbcd8b3b9	-0.026452886
250	0xbda34078	-0.07971281
251	0xbc354b91	-0.01106538
252	0x3e13b66f	0.14425062
253	0xbdf133c1	-0.117774494
254	0x3d1eb400	0.03874588
255	0xbcb37644	-0.02190698

8.bias f4 [40]
0	0xbe229669	-0.1587769
1	0xbdaaff71	-0.08349503
2	0xbe34cf5e	-0.1765723
3	0xbda84759	-0.082167335
4	0xbe1828dc	-0.14859337
5	0x3d1e6fb6	0.038680755
6	0xbb123c7d	-0.0022313886
7	0xbe4802b9	-0.19532289
8	0x3e2d361a	0.1691517
9	0x3d2fad48	0.042889863
10	0xbdd498f2	-0.103807345
11	0xbdd5f947	-0.104479365
12	0xbd7c52d2	-0.06160242
13	0x3d354945	0.04425933
14	0xbdb78b16	-0.089620754
15	0xbdbf6d51	-0.09347022
16	0x3e097041	0.13421728
17	0xbdace4a4	-0.08442047
18	0xbc281c29	-0.01026062
19	0x3e0a03fa	0.1347808
20	0xbd2abfd5	-0.04168685
21	0x3d9030e0	0.07040572
22	0xbe24f69b	-0.16109698
23	0xbd39e58f	-0.04538494
24	0xbcd60c80	-0.026129007
25	0xbe1e922e	-0.1548545
26	0xbe09f766	-0.13473281
27	0x3e289ca1	0.16465999
28	0x3d9b52c9	0.075841494
29	0xbc79d299	-0.015247964
30	0x3d38cb56	0.04511579
31	0x3d1fd19c	0.03901826
32	0x3c3f161c	0.011662986
33	0xbb1ceee4	-0.00239461
34	0x3dde6188	0.10858446
35	0x3db8aab7	0.09016936
36	0xbcc7ce63	-0.024390405
37	0x3d5c6497	0.053806867
38	0xbadf6454	-0.001704345
39	0xbbe82a8d	-0.0070851506

10.weight f4 [40, 40]
0	0x3c1f3d60	0.009719223
1	0x3cc9ebf0	0.024648637
2	0x3ded5c9b	0.11589929
3	0x3d5ee927	0.05442157
4	0x3c0a00bf	0.008423029
5	0xbe4a2368	-0.19740069
6	0xbe17376a	-0.14767233
7	0x3c14e3e9	0.009087541
8	0xbcffe572	-0.031237338
9	0x3e153947	0.14572631
10	0x3e19f94e	0.15036508
11	0x3e2698c7	0.16269217
12	0x3d896310	0.06708348
13	0x3d6915f9	0.05690572
14	0xbc0f2914	-0.008737821
15	0x3d4ee214	0.050508574
16	0x3c200175	0.009765972
17	0xbd9ef278	-0.07761091
18	0xbe5aea44	-0.21378428
19	0xbdbb8f2c	-0.09158167
20	0xbe6a3835	-0.22873004
21	0xbe1b4b49	-0.15165438
22	0x3def8c83	0.11696722
23	0x3e5037c3	0.20333771
24	0x3d92c001	0.07165528
25	0xbdb1d840	-0.086838245
26	0x3de62c9b	0.112389766
27	0x3d81bdf1	0.063350566
28	0x3dd7f49f	0.10544705
29	0xbb24cac1	-0.0025145265
30	0xbd5d5095	-0.054031927
31	0x3e6c2207	0.23059855
32	0xbca17554	-0.019709267
33	0x3de49cf6	0.111627504
34	0xbe0f6ef8	-0.14007175
35	0xbe8fc69d	-0.28081217
36	0xbdc5fe3a	-0.096676305
37	0xbd9464c2	-0.072457805
38	0x3e1ac662	0.1511474
39	0xbea12668	-0.31474614
40	0xbe2a02c0	-0.16602612
41	0xbd64a6e3	-0.055823218
42	0x3e452122	0.1925092
43	0xbd35ad16	-0.04435452
44	0x3db5ae0b	0.08871087
45	0x3d8214f3	0.06351652
46	0xbc8f257a	-0.017473925
47	0x3d84dd16	0.06487481
48	0xbe88d760	-0.26726818
49	0x3cab2d86	0.02089573
50	0x3dfaa63e	0.122387394
51	0x3d95dfdd	0.07318089
52	0xbd35670c	-0.044287726
53	0xbd5cf663	-0.05394591
54	0x3d6e0055	0.058105785
55	0x3e330074	0.17480642
56	0xbd5b7989	-0.0535827
57	0xbd007f01	-0.03137112
58	0xbd97100f	-0.0737611
59	0xbdcec6a9	-0.10096485
60	0xbda4b966	-0.080431744
61	0x3d7c5740	0.061606646
62	0xbdba9d89	-0.09112079
63	0x3da27a2d	0.079334594
64	0xbd83d208	-0.06436545
65	0x3e24191d	0.16025205
66	0xbd897866	-0.06712417
67	0xbda72042	-0.081604496
68	0xbda4f3ed	-0.08054338
69	0xbd37925b	-0.04481731
70	0xbd7392d0	-0.059466183
71	0x3e0806c4	0.13283831
72	0xbe5d9f40	-0.2164278
73	0x3dd37231	0.10324515
74	0xbda709e9	-0.08156187
75	0x3d165f35	0.03671189
76	0xbe985214	-0.2975012
77	0xbe4e668a	-0.20156303
78	0x3c90b24d	0.017663145
79	0xbe89fd99	-0.26951292
80	0x3c0659e9	0.008200147
81	0x3d753504	0.059865013
82	0xbdf9a01c	-0.121887416
83	0xbda38bfe	-0.07985686
84	0x3e0588c4	0.13040453
85	0x3d70d585	0.058797378
86	0x3dc9c358	0.09851712
87	0x3e402b5d	0.18766542
88	0x3dc571a3	0.09640815
89	0xbdc7ce9b	-0.09756204
90	0xbdd60925	-0.10450963
91	0xbd8af0e5	-0.06784228
92	0x3da78377	0.08179372
93	0x3b01fcd0	0.0019834526
94	0xbd8ae6ba	-0.06782289
95	0x3e542a2b	0.20719211
96	0xbd913c6e	-0.07091604
97	0x3e0c5716	0.13705096
98	0xbd3876ba	-0.0450351
99	0x3d499004	0.04920961
100	0xbca178ac	-0.019710861
101	0x3cda0d8e	0.026617792
102	0xbd50cff2	-0.050979562
103	0x3de43d6e	0.11144529
104	0xbd645933	-0.05574913
105	0x3e088762	0.13332894
106	0xbd730f16	-0.05934056
107	0x3cd78263	0.02630729
108	0xbdecf780	-0.115706444
109	0xbdc16041	-0.09442187
110	0x3e1ab9a4	0.15109879
111	0x3e029a1b	0.12754099
112	0xbe11ce53	-0.14238863
113	0xbd86a6a7	-0.06574755
114	0xbddbeb45	-0.107382335
115	0x3cdc0f09	0.026862638
116	0xbbce72b1	-0.0063002934
117	0xbd7f71f9	-0.062364552
118	0x3d9bd96f	0.076098315
119	0x3d2594b8	0.040425032
120	0xbd9a1120	-0.075227976
121	0xbca63702	-0.020289902
122	0xbe7d47d9	-0.24734439
123	0x3e0def71	0.13860871
124	0xbe3e3289	-0.18573965
125	0xbd3c2523	-0.045933854
126	0xbc5b37c0	-0.013379991
127	0xbe3b5378	-0.1829356
128	0x3d9057ab	0.07047971
129	0x3e0d7272	0.13813189
130	0xbcf98e80	-0.030463457
131	0xbcb8c980	-0.02255702
132	0xbdeba9ba	-0.11506982
133	0x3ca9afb8	0.020713672
134	0xbe316559	-0.17323817
135	0x3d9532e8	0.072851
136	0x3d57e476	0.05270811
137	0xbe67ce49	-0.22637285
138	0x3cf29177	0.029610379
139	0x3e2cf4fa	0.16890326
140	0x3e327aa8	0.17429602
141	0x3d388ac8	0.045054227
142	0xbe6651f1	-0.22492196
143	0xbde8e5f7	-0.11371987
144	0x3c1ec50c	0.009690534
145	0x3d194503	0.03741933
146	0xbd8c49dc	-0.06850025
147	0x3e20e5c5	0.1571265
148	0xbe1b83b4	-0.1518696
149	0xbe3bc2e4	-0.18336064
150	0xba9fddc6	-0.0012196831
151	0x3dc12a26	0.09431867
152	0x3e274941	0.16336538
153	0xbd816774	-0.0631856
154	0xbd277cde	-0.040890567
155	0x3d831eaa	0.06402333
156	0x3d9c4cc0	0.076318264
157	0xbdc9be71	-0.09850777
158	0xbddeeaaa	-0.10884602
159	0x3df4681f	0.11933922
160	0x3d123ff5	0.035705525
161	0xbda4c1c5	-0.08044771
162	0x3d7d754c	0.06187944
163	0xbdfeca27	-0.12440901
164	0x3d69ff0a	0.05712799
165	0xbd52c472	-0.051456876
166	0xbe4c4b37	-0.19950567
167	0x3e800812	0.25006157
168	0xbd115922	-0.035485394
169	0x3d812be3	0.06307199
170	0xbdc95d47	-0.09832244
171	0x3d885e09	0.06658561
172	0x3daadb61	0.083426245
173	0xbd53acbc	-0.051678404
174	0x3e4c4c07	0.19950877
175	0x3e126666	0.14296874
176	0xbe133235	-0.14374621
177	0x3e8bb775	0.27288404
178	0xbd8c6a9e	-0.06856273
179	0xbe5e6d45	-0.2172137
180	0xbcd869f4	-0.02641771
181	0xbe8093c1	-0.25112727
182	0x3e6f5669	0.23372807
183	0xbc2464ce	-0.010033799
184	0xbd0dbd18	-0.034604162
185	0x3e6a64f8	0.22890079
186	0xbc2220db	-0.009895529
187	0xbe320f29	-0.17388596
188	0x3dcd96b3	0.10038509
189	0x3e530c1a	0.20610085
190	0xbccb3434	-0.024805166
191	0xbdd564bf	-0.104196064
192	0xbe263218	-0.16230047
193	0x3e0d631b	0.13807337
194	0x3d448e62	0.04798735
195	0xbdc54016	-0.09631364
196	0xbd95e984	-0.0731993
197	0xbe30f24e	-0.17279932
198	0x3dff2715	0.12458626
199	0xbd9d1805	-0.07670597
200	0x3d0fd268	0.03511277
201	0x3dc5ee8d	0.096646406
202	0x3e218de7	0.15776788
203	0xbe21bf47	-0.15795623
204	0x3dd268eb	0.10273918
205	0x3e00bb10	0.12571359
206	0x3de8f209	0.113742895
207	0x3df65637	0.12028163
208	0xbd82c95d	-0.06386063
209	0xbdf69554	-0.12040201
210	0xbdbd58a0	-0.092454195
211	0xbdbd49ae	-0.09242569
212	0xbd2f6bbf	-0.042827364
213	0x3d9bfa01	0.07616044
214	0x3e49420e	0.19654104
215	0x3df7ee20	0.121059656
216	0xbcbb3fc7	-0.02285756
217	0x3d828652	0.06373276
218	0xbdbe5cd1	-0.09295047
219	0xbdfae57c	-0.12250802
220	0xbd205c0c	-0.039150283
221	0xbd8a0a58	-0.06740254
222	0x3dad7550	0.08469641
223	0x3dcb7990	0.099352956
224	0x3d651e70	0.05593723
225	0x3e20c7ff	0.15701292
226	0x3d0f3b6b	0.034968775
227	0xbe13a1bb	-0.14417164
228	0x3ceddca2	0.02903587
229	0x3d2e3e57	0.04253992
230	0xbe194ef9	-0.14971532
231	0x3cb2867d	0.021792645
232	0x3ddad7e9	0.10685713
233	0xbcc9cb65	-0.024633119
234	0x3d9ce509	0.076608725
235	0xbdb42954	-0.08796945
236	0x3d8628a4	0.0655072
237	0x3ced95cb	0.02900209
238	0x3d8f4970	0.06996429
239	0xbddf7f86	-0.10912995
240	0xbe19beac	-0.15014142
241	0xbcb8f36b	-0.022577008
242	0xbca80815	-0.020511666
243	0x3d917f7a	0.07104392
244	0xbdc55295	-0.09634892
245	0xbc368305	-0.011139636
246	0x3df43bec	0.11925492
247	0x3e1eea89	0.15519156
248	0xbe606b15	-0.21915849
249	0x3e05ba2b	0.13059299
250	0x3e83f9aa	0.25776416
251	0x3eba2af3	0.36360893
252	0x3dbbf23a	0.091770604
253	0x3e4437b3	0.19161873
254	0x3e174280	0.14771461
255	0x3e35e52f	0.17763208

10.bias f4 [40]
0	0xbcb45cb3	-0.022016859
1	0xbe0073ae	-0.12544128
2	0xbd912a9b	-0.070882045
3	0x3d289883	0.04116107
4	0xbdef2129	-0.11676247
5	0x3d6734bc	0.056446776
6	0xbe2a75cd	-0.166465
7	0x3db9456b	0.090464436
8	0x3c47823a	0.0121770445
9	0x3dc8c822	0.09803797
10	0x3dd45644	0.10368016
11	0x3d0eca46	0.03486087
12	0x3d4a91a7	0.04945531
13	0x3dbfade9	0.093593426
14	0xbd49e9fb	-0.049295407
15	0xbe25b584	-0.16182524
16	0xbe1b6c3b	-0.15178005
17	0xbe16db42	-0.14732078
18	0xbdd3103b	-0.1030583
19	0xbd145946	-0.03621795
20	0xbe17cd8c	-0.14824504
21	0xbe08fc54	-0.13377506
22	0x3bf2738a	0.0073990272
23	0xbe3e9918	-0.18613088
24	0xbe08e819	-0.13369788
25	0xbd99cedf	-0.07510161
26	0x3d1ef6d7	0.038809624
27	0x3ccbef17	0.02489428
28	0x3e28c06f	0.16479658
29	0xbdcfbcf1	-0.101434596
30	0xbe21ab18	-0.15787923
31	0xbd7513f9	-0.0598335
32	0xbe25b894	-0.16183692
33	0x3d9d2c9f	0.076745264
34	0x3d663429	0.056202088
35	0xbbc35c1f	-0.0059619094
36	0x3c55c0ca	0.013046453
37	0x3db3a536	0.08771746
38	0x3e16e113	0.14734297
39	0x3db7d090	0.08975327

12.weight f4 [40, 40]
0	0x3dca717e	0.09884928
1	0x3cd673f6	0.026178341
2	0x3cd9b9d4	0.026577868
3	0xbe83191e	-0.256051
4	0x3ea15deb	0.31516966
5	0x3e15bc9d	0.14622732
6	0x3db11798	0.08647078
7	0x3d69caf9	0.057078335
8	0x3e72f42d	0.23725958
9	0x3e0ffaf3	0.14060573
10	0x3dfdc317	0.12390726
11	0xbdc6500d	-0.09683237
12	0x3aacc336	0.0013180736
13	0xbc273591	-0.010205642
14	0x3d6b746b	0.05748407
15	0xbd3b87d2	-0.045783825
16	0x3e518bef	0.20463537
17	0x3e182cf6	0.14860901
18	0xbdb3cecc	-0.08779678
19	0xbd9162cf	-0.07098924
20	0x3c99cf6e	0.018775668
21	0x3e53aadd	0.20670648
22	0xbe08ff88	-0.13378727
23	0x3dfa1033	0.12210121
24	0x3e2edf63	0.17077403
25	0x3ce4b001	0.027915956
26	0xbe441907	-0.19150172
27	0x3e30386e	0.17209026
28	0x3d3c2f62	0.045943625
29	0x3c64ee7e	0.013972877
30	0x3e4c4bc6	0.1995078
31	0xbd93fb1c	-0.0722563
32	0x3e0b222f	0.13587259
33	0xbd872e9a	-0.066006854
34	0x3e0e95a5	0.13924272
35	0x3c24981d	0.010046032
36	0x3d694ac1	0.056956057
37	0xbe78b1ee	-0.24286625
38	0xbe2ee3dd	-0.1707911
39	0xbe8466df	-0.25859734
40	0x3e835689	0.2565196
41	0x3e74f557	0.23921715
42	0x3da1c3c3	0.07898667
43	0x3d6de50e	0.05807977
44	0xbd95d05f	-0.07315134
45	0x3cfc6d81	0.030813934
46	0x3e43e85b	0.19131605
47	0x3e496139	0.19665994
48	0xbde50ae4	-0.11183718
49	0xbe316190	-0.17322373
50	0xbdc3ada5	-0.095546044
51	0x3e8e3705	0.27776352
52	0xbdb05c81	-0.08611394
53	0x3e851180	0.25989914
54	0x3d656ad7	0.056010094
55	0xbddce2b1	-0.107854255
56	0xb70febcb	-8.578364e-06
57	0xbdb699ac	-0.08916029
58	0x3d45deac	0.04830806
59	0x3e57ddaf	0.2108066
60	0xbe3b8322	-0.18311742
61	0xbd23a582	-0.039952762
62	0x3daf67bb	0.08564707
63	0x3dcf2c98	0.101159275
64	0xbd3b1726	-0.045676373
65	0x3dc4703c	0.095917195
66	0x3e355280	0.17707253
67	0xbdcabb7c	-0.09899041
68	0xbe3ec8cd	-0.18631287
69	0x3e0d3546	0.13789853
70	0xbd3ccc8c	-0.04609351
71	0x3a9d4366	0.0011998236
72	0xbcca635f	-0.024705587
73	0xbc56eb3f	-0.0131176105
74	0x3b94a3db	0.0045361347
75	0x3cb41ae7	0.021985484
76	0xbe1be04c	-0.15222281
77	0x3cf6fc89	0.030149715
78	0x3dbead7c	0.09310433
79	0x3db799ee	0.08964907
80	0xbdae3225	-0.08505658
81	0xbd427cf6	-0.047482453
82	0xbda6d6ef	-0.08146464
83	0xbde1338b	-0.10996159
84	0x3d8a5dce	0.06756173
85	0x3d7fb041	0.06242395
86	0x3c6dcf05	0.014514689
87	0xbd4f6e49	-0.050642285
88	0x3d5d77ea	0.054069437
89	0x3e253240	0.1613245
90	0xb89350f7	-7.024587e-05
91	0xbe2cf26f	-0.16889356
92	0xbda9d009	-0.08291633
93	0x3d8a708c	0.06759748
94	0xbe5aadf8	-0.21355426
95	0x3dfd62dd	0.12372372
96	0xbc683101	-0.01417184
97	0x3c7d161b	0.015447165
98	0x3e215c86	0.15757951
99	0xbe7f1c52	-0.24913147
100	0x3e370b50	0.17875409
101	0xbd24fc8c	-0.04027991
102	0x3e130bcb	0.14359967
103	0x3c08253b	0.008309658
104	0x3dea9505	0.114542045
105	0x3b5718a7	0.003282109
106	0xbe32937e	-0.17439076
107	0xbbc21ccf	-0.0059238444
108	0xbbffafc4	-0.0078029353
109	0xbe3864bd	-0.18007179
110	0xbce0aac1	-0.027425172
111	0x3d3c2fc6	0.045943998
112	0xbc077ec5	-0.00826997
113	0xbe202859	-0.15640391
114	0x3e05111e	0.12994811
115	0x3d8aee41	0.067837246
116	0x3dd66b7d	0.104697205
117	0x3e4833f0	0.19551063
118	0x3e2e0977	0.16995798
119	0x3d24c6da	0.040228702
120	0xbdd24661	-0.1026733
121	0x3dd60489	0.10450084
122	0x3de5b498	0.11216086
123	0xbe30afdd	-0.17254587
124	0x3e4f4af6	0.20243439
125	0x3e1c1615	0.15242799
126	0x3db7054b	0.089365564
127	0x3db593f6	0.08866112
128	0x3e9c1787	0.304867
129	0xbe1b41a8	-0.15161765
130	0xbe491cfe	-0.19639966
131	0xbd776149	-0.060395513
132	0x3d9f30c4	0.07772973
133	0xbdb904d7	-0.09034126
134	0x3e281b6f	0.16416715
135	0x3d208365	0.039187808
136	0xbc8efdd4	-0.017455019
137	0x3de1faa0	0.11034131
138	0xbe923dbb	-0.28562722
139	0x3dedebfb	0.11617275
140	0xbe149544	-0.14510065
141	0x3e8b738f	0.27236602
142	0xbdabe4e2	-0.08393265
143	0x3e5516f4	0.20809537
144	0xbda7c892	-0.081925526
145	0x3e0a8b54	0.13529712
146	0xbdfb6672	-0.12275399
147	0x3ebb65b4	0.3660103
148	0xbd291d04	-0.041287437
149	0x3e742774	0.23843175
150	0xbdb63c9b	-0.08898278
151	0xbd836f62	-0.06417729
152	0x3d7b12b1	0.061297122
153	0x3e0ccf46	0.13750944
154	0x3daea955	0.08528391
155	0x3dd86888	0.10566813
156	0x3c293ea7	0.010329879
157	0xbe3dec1b	-0.18547098
158	0xbeb0e018	-0.3454597
159	0xbda56d14	-0.080774456
160	0xbc88b3b6	-0.016687255
161	0xbdc0cddd	-0.09414265
162	0x3d369adb	0.044581275
163	0x3ca86e7c	0.020560496
164	0xbe062552	-0.13100174
165	0xbd552961	-0.052041415
166	0xbe13a7fb	-0.14419548
167	0xbdd81bc5	-0.105521716
168	0xbec0bfe4	-0.376464
169	0x3e8040ff	0.25049588
170	0xbc80ee2a	-0.015738565
171	0x3d1d1b95	0.038356382
172	0xbd47a38e	-0.048739962
173	0x3c747dd7	0.014922581
174	0xbe1039ec	-0.14084595
175	0x3d2a59ab	0.04158942
176	0x3d2f236d	0.042758394
177	0xbd1c27f4	-0.03812404
178	0x3e06b7a0	0.13155985
179	0xbe5c8595	-0.21535333
180	0xbdf9bdf3	-0.12194433
181	0xbea624cb	-0.32449946
182	0x3e9d6567	0.30741426
183	0xbe44d2a5	-0.1922098
184	0x3c64c808	0.013963707
185	0xbdad7097	-0.084687404
186	0x3d5a3e81	0.053282265
187	0xbdeceb0f	-0.11568271
188	0xbd93dad9	-0.07219476
189	0xbe9db2e9	-0.3080056
190	0xbe0fbfb7	-0.14037977
191	0x3b463264	0.0030242437
192	0xbe641110	-0.22272134
193	0x3d318839	0.043342803
194	0x3da64f77	0.081206255
195	0x3d618668	0.05505982
196	0xbe09079b	-0.13381808
197	0x3de96cbc	0.113976926
198	0x3ea7f4b2	0.32803875
199	0x3d385506	0.04500296
200	0xbd98c745	-0.07459883
201	0x3c300600	0.010743618
202	0x3e410177	0.18848215
203	0xbd8878d8	-0.06663674
204	0x3d4ed53f	0.050496336
205	0x3e19909a	0.14996567
206	0x3c9f7eb9	0.019469606
207	0x3dcba9bf	0.09944486
208	0x3edb0741	0.42778972
209	0xbe4637c8	-0.19357216
210	0xbd860a81	-0.06544972
211	0x3e0b3953	0.13596086
212	0xbe251580	-0.16121483
213	0x3e022d07	0.12712489
214	0x3e1a9946	0.15097532
215	0x3e2c79c9	0.16843332
216	0xbad08f23	-0.0015911799
217	0x3e30d2a8	0.17267859
218	0xbd8dda53	-0.06926408
219	0x3e425f64	0.18981701
220	0x3d97c95c	0.07411453
221	0x3e5fe65c	0.21865219
222	0xbe975cd6	-0.29563016
223	0x3d3c193a	0.045922495
224	0x3e21d803	0.15805058
225	0x3dcc05b6	0.09962027
226	0xbbe16f2a	-0.006879707
227	0x3eded927	0.4352505
228	0xbe3f1966	-0.18662032
229	0x3ea05e17	0.31321785
230	0x3e600cd1	0.21879889
231	0xbd1d4e7b	-0.038404923
232	0x3e3e8881	0.1860676
233	0x3e1ceb82	0.15324214
234	0xbd87f9a1	-0.0663941
235	0x3c35e409	0.011101731
236	0x3d792211	0.060823504
237	0xbe7338c7	-0.23752128
238	0xbeb21640	-0.347826
239	0xbd0e72cd	-0.03477745
240	0xbeb22112	-0.34790856
241	0xbe383d1d	-0.17992063
242	0xbdb6f6ab	-0.08933767
243	0x3c696c05	0.014246945
244	0xbd1a0299	-0.037600134
245	0xbd061d75	-0.032742936
246	0xbeac478d	-0.3364834
247	0xbd4671ae	-0.048448257
248	0x3d639517	0.055562105
249	0x3e09599d	0.13413091
250	0xbbe25ab2	-0.0069077844
251	0xbda768b2	-0.08174266
252	0x3d59267c	0.053015217
253	0xbc22e4ee	-0.009942276
254	0x3d2e0e48	0.04249409
255	0xbd967552	-0.07346596
